generators/Generador_foso/generators.pth (torch, 668770 bytes, 56 tensors)

weight f4 [64, 2, 3, 3]
0.11191253 -0.034115966 -0.04696418 -0.00048358098 -0.0068658157 0.014947732 -0.024002649 -0.007980397
0.05319572 -0.0019866063 -0.020307798 -0.059159122 0.0023558424 0.012913669 0.011294826 -0.037663512
0.048626788 -0.02132908 0.030387826 0.05048706 -0.026292432 -0.048511896 0.03467342 -0.02669522
0.036941636 -0.033760615 0.0026986669 -0.059624698 0.014395579 -0.06688763 -0.0031524685 0.0056793476
-0.09221254 -0.053520862 0.024930308 0.03763122 -0.0275964 -0.01707448 -0.10736569 -0.060141694
-0.02324438 -0.019713102 -0.00068489456 0.02505574 0.059206467 -0.026624205 -0.01925531 0.011920846
-0.011304736 -0.052564025 0.03624807 0.017482849 0.04011135 -0.042199153 -0.08151601 0.012060727
-0.013559182 0.016625883 0.03299211 0.0195674 -0.014484119 0.0038237032 -0.08884021 -0.028179102
-0.024559032 -0.0541588 0.0720075 -0.0012299406 -0.050400924 -0.050024047 0.06450059 -0.047490384
-0.04236893 -0.005048472 0.02880752 -0.015972422 -0.004202381 -0.0012703243 0.0028792482 -0.04924309
-0.0022250987 0.088140145 -0.011143654 -0.030130696 0.052431792 0.025098667 -0.1137754 0.05089413
-0.0039347666 0.004767952 0.015582945 0.002946638 0.017253386 0.017190887 -0.012809011 -0.015553406
-0.023188127 0.05569745 -0.055017058 0.013766236 -0.05329266 -0.025461543 0.021773042 0.054700762
0.04735319 0.022614764 0.08121194 0.09900671 0.06479295 0.02063946 0.033609588 0.073903084
-0.053567186 0.008105557 -0.04879183 0.055435702 0.013346925 0.0398149 -0.020745087 -0.036739495
0.033638664 0.03992316 -0.0004146268 -0.024060888 -0.031872794 -0.04192965 0.0016453335 0.007693967
-0.001544181 0.026866734 -0.063342646 0.04709962 0.0022333197 0.00022146438 -0.007033605 0.0044897837
-0.0020463027 0.0024946393 -0.05872586 -0.12182037 -0.04349783 0.022218795 0.07608924 0.052984245
0.040302455 0.0029845338 -0.03468999 -0.019242575 -0.019006612 0.030998757 -0.0053664874 0.0042047845
-0.050482363 -0.076720014 0.008695602 0.04414056 0.092232995 -0.08647441 0.01300453 0.009831012
-0.0030191122 -0.014014249 -0.016034678 -0.008410962 -0.0069873855 -0.018186295 0.0036104158 0.006611279
0.042625975 0.058903225 -0.017032282 0.006163647 -0.004453447 0.0022164886 -0.005818226 -0.004082031
0.023395734 -0.091669686 0.09681789 0.016315859 0.0060152197 -0.04668417 0.0074980236 -0.0020081834
0.005487408 0.009030809 -0.035289202 -0.07901781 0.04600585 0.08391046 -0.022877546 0.0057956465
-0.055417635 -0.02208109 -0.011953906 0.03799938 -0.075261004 0.0717983 0.050582726 -0.027837887
0.0026861336 0.039607257 -0.06407947 0.04010662 0.028458767 -0.031840395 -0.023422902 -0.07076628
-0.03056454 0.049706284 0.059032004 -0.02842416 -0.00073898595 -0.06490985 -0.016247453 0.068564765
0.0032179113 0.0039918874 -0.0017000928 0.1099204 -0.019475382 0.011606127 -0.08167949 0.006800689
-0.02685401 -0.0021329138 -0.00040907555 0.00088787806 0.06036017 -0.007940183 0.007817209 0.040563818
-0.06303316 -0.001995182 -0.050847344 0.029994799 -0.022429354 -0.05342585 0.05329477 -0.026847238
-0.0036765926 -0.0065156 -0.002595504 0.03586362 -0.04020352 0.008665659 -0.078024365 -0.018558975
0.012993982 0.10640746 -0.0041634403 0.0028372065 -0.0071151187 -0.06426886 0.103567086 -0.02367903
00000000: 6632 e53d 2fbd 0bbd 835d 40bd 2489 fdb9
00000010: a3fa e0bb 55e7 743c 34a1 c4bc 36c0 02bc
00000020: c1e3 593d b931 02bb 8a5c a6bc d650 72bd
00000030: 7a64 1a3b db93 533c ef0d 393c 0e45 1abd
00000040: e22c 473d 53ba aebc e4ef f83c 85cb 4e3d
00000050: 3a63 d7bc 69b4 46bd b705 0e3d efaf dabc
00000060: 1d50 173d 9248 0abd 1edc 303b 0739 74bd
00000070: 6fdb 6b3c 62fc 88bd a599 4ebb d219 ba3b
00000080: eed9 bcbd b138 5bbd a53a cc3c 3223 1a3d
00000090: d811 e2bc c8df 8bbc 8be2 dbbd 2357 76bd
000000a0: ff6a bebc 5f7d a1bc 7f8a 33ba b241 cd3c
000000b0: 7b82 723d 011b dabc 50bd 9dbc a74f 433c
000000c0: 8037 39bc 604d 57bd db78 143d 3138 8f3c
000000d0: cd4b 243d 05d9 2cbd def1 a6bd 5b9a 453c
000000e0: 5527 5ebc 0133 883c bc22 073d d04b a03c
000000f0: cc4e 6dbc 1897 7a3b dbf1 b5bd dcd7 e6bc
00000100: 0630 c9bc 9ed5 5dbd ab78 933d f535 a1ba
00000110: 3371 4ebd 04e6 4cbd e318 843d 4785 42bd
00000120: 0b8b 2dbd a76d a5bb c0fd eb3c 99d8 82bc
00000130: 20b4 89bb 0381 a6ba c5b1 3c3b 1fb3 49bd
00000140: f6d2 11bb d282 b43d df93 36bc a6d4 f6bc
00000150: b8c2 563d b89b cd3c 1403 e9bd 5d76 503d
00000160: 37ef 80bb 7b3c 9c3b 9c4f 7f3c 621c 413b
00000170: f956 8d3c e7d3 8c3c e3dc 51bc b7d3 7ebc
00000180: 07f5 bdbc 0223 643d 9159 61bd c78b 613c
00000190: 6749 5abd ba94 d0bc 615d b23c e80d 603d
000001a0: 6bf5 413d 9942 b93c 7252 a63d 08c4 ca3d
000001b0: 2bb2 843d 1614 a93c 35aa 093d 805a 973d
000001c0: 4469 5bbd 2ccd 043c f1d9 47bd 8c10 633d
000001d0: 10ad 5a3c f314 233d 9af1 a9bc 277c 16bd
000001e0: b2c8 093d 7886 233d 4462 d9b9 571b c5bc
000001f0: 0c8d 02bd 6dbe 2bbd 3ba8 d73a ac1d fc3b
00000200: 1e66 caba a017 dc3c cab9 81bd 88eb 403d
00000210: e35c 123b e438 6839 287a e6bb 091f 933b
00000220: 431b 06bb 1a7d 233b 878a 70bd f57c f9bd
00000230: c82a 32bd 3104 b63c add4 9b3d 0206 593d
00000240: 3014 253d 2b98 433b 1717 0ebd 9ba2 9dbc
00000250: c1b3 9bbc 1bf1 fd3c 5cd9 afbb 4ac8 893b
00000260: 98c6 4ebd 621f 9dbd 0078 0e3c bbcc 343d
00000270: a7e4 bc3d 7f19 b1bd f410 553c 4112 213c
00000280: 4cdc 45bb 059c 65bc 285b 83bc 22ce 09bc
00000290: 70f6 e4bb 6dfb 94bc ba9c 6c3b 6ea3 d83b
000002a0: 9398 2e3d 8244 713d 4987 8bbc 6bf8 c93b
000002b0: 39ee 91bb 8242 113b d1a6 bebb 8fc2 85bb
000002c0: 69a8 bf3c 51bd bbbd 7548 c63d d6a8 853c
000002d0: 521b c53b e637 3fbd fbb1 f53b ba9b 03bb
000002e0: b7cf b33b f5f5 133c 698b 10bd 17d4 a1bd
000002f0: a170 3c3d 3fd9 ab3d b169 bbbc 68e9 bd3b
00000300: 9afd 62bd 67e3 b4bc 51da 43bc 3da5 1b3d
00000310: 7122 9abd fd0a 933d d52f 4f3d 480c e4bc
00000320: d809 303b 383b 223d 193c 83bd d746 243d
00000330: 5c22 e93c 136b 02bd 63e1 bfbc e9ed 90bd
00000340: 7c62 fabc d198 4b3d 8bcb 713d c9d9 e8bc
00000350: 82b8 41ba 75ef 84bd 6119 85bc af6b 8c3d
00000360: 98e3 523b 61ce 823b a6d5 deba f21d e13d
00000370: d68a 9fbc a027 3e3c 9447 a7bd 50d8 de3b
00000380: f1fc dbbc 5bc8 0bbb 3179 d6b9 7dc0 683a
00000390: 3a3c 773d 8b17 02bc c013 003c 3f26 263d
000003a0: 8817 81bd 99c1 02bb 4e45 50bd a7b7 f53c
000003b0: c4bd b7bc 10d5 5abd 9e4b 5a3d bdee dbbc
000003c0: fdf2 70bb d080 d5bb 5519 2abb bbe5 123d
000003d0: 72ac 24bd 69fa 0d3c 3dcb 9fbd fe08 98bc
000003e0: b6e4 543c 28ec d93d 786d 88bb 6df0 393b
000003f0: f125 e9bb 649f 83bd fb1a d43d 86fa c1bc

bias f4 [64]
-0.1616808 -0.045486692 0.07982781 0.16881095 0.047705952 0.19283481 -0.08063346 0.21415186
-0.18292567 -0.042888127 -0.17036712 -0.1580725 -0.04800215 0.079676904 -0.05634291 0.0056913383
0.2068977 0.105436474 -0.16762538 0.12476732 0.08015253 -0.057691786 0.11668461 0.004916561
0.104453616 -0.1933682 -0.20963776 -0.07402036 -0.025405781 -0.2011353 0.21371394 -0.13813621
-0.11949608 -0.001328319 0.07788602 -0.12431061 0.13663003 0.009663798 -0.04550922 -0.06164587
-0.09722933 -0.10407004 0.06511727 -0.1932624 0.062785655 -0.18496278 0.13316728 -0.004714829
0.14684719 -0.12710166 -0.2704147 -0.15173763 0.15321027 -0.061310194 -0.033244956 -0.040601622
-0.027080245 0.18990843 -0.14287195 0.022646975 -0.1499889 0.16300288 -0.045417383 0.027563162
00000000: a78f 25be 4150 3abd c37c a33d c7dc 2c3e
00000010: 5167 433d 7d76 453e 2823 a5bd a04a 5b3e
00000020: de50 3bbe 76ab 2fbd b874 2ebe c2dd 21be
00000030: e79d 44bd a52d a33d d3c7 66bd 687e ba3b
00000040: fedc 533e 14ef d73d fda5 2bbe 0286 ff3d
00000050: 0227 a43d 394e 6cbd 57f8 ee3d 1a1b a13b
00000060: c7eb d53d 5002 46be 48ab 56be fd97 97bd
00000070: c91f d0bc 69f6 4dbe d4d7 5a3e 9473 0dbe
00000080: 5cba f4bd fd1a aeba b582 9f3d 9096 febd
00000090: bee8 0b3e e854 1e3c e067 3abd 6180 7cbd
000000a0: 2c20 c7bd ac22 d5bd 345c 853d 94e6 45be
000000b0: c495 803d e266 3dbe 015d 083e da7e 9abb
000000c0: 1c5f 163e f026 02be cc73 8abe 1c61 1bbe
000000d0: 27e3 1c3e 6620 7bbd dd2b 08bd e34d 26bd
000000e0: 64d7 ddbc 5b77 423e 064d 12be 2686 b93c
000000f0: b196 19be 3aea 263e 9407 3abd 24cc e13c

weight f4 [64]
0.97346216 0.9663253 0.91043365 1.0015997 0.9589137 0.90706974 1.0036514 1.0411767
0.96881753 1.0043205 0.9744053 1.0447499 1.033035 0.94667536 1.013184 0.9863947
0.9304478 1.0328345 0.8667698 1.0348719 0.91707236 0.98488915 0.9846388 0.93949974
0.9398591 0.9909744 1.0820072 1.1145368 0.96659917 1.0284002 1.0570289 1.0006584
0.92008233 1.1392678 1.0421461 0.97487736 0.95245606 0.9030852 0.98830235 0.930029
0.9806212 1.0072039 0.9845814 0.965599 0.91252804 0.94303226 1.0377735 1.0429697
1.0037247 1.0581887 1.2283076 0.9653928 0.94680214 0.9675074 0.9394299 0.89557326
1.0018708 1.0365351 0.8822374 0.98457277 0.9325506 0.93151456 1.1835304 0.96277785
00000000: d134 793f 1861 773f 2e12 693f 6b34 803f
00000010: 5e7b 753f b935 683f a677 803f 4745 853f
00000020: 6d04 783f 938d 803f a072 793f 5dba 853f
00000030: 7e3a 843f 5159 723f 03b0 813f 5d84 7c3f
00000040: d431 6e3f ec33 843f a0e4 5d3f af76 843f
00000050: 41c5 6a3f b221 7c3f 4a11 7c3f 0e83 703f
00000060: 9b9a 703f 80b0 7d3f 367f 8a3f 24a9 8e3f
00000070: 0b73 773f 9ea2 833f b94c 873f 9315 803f
00000080: 848a 6b3f 87d3 913f 0b65 853f 9091 793f
00000090: 29d4 733f 9730 673f 6201 7d3f 6116 6e3f
000000a0: fe09 7b3f 0fec 803f 870d 7c3f 7f31 773f
000000b0: 709b 693f 906a 713f c3d5 843f 0880 853f
000000c0: 0d7a 803f ba72 873f 2f39 9d3f fc23 773f
000000d0: a061 723f 91ae 773f 7a7e 703f 4a44 653f
000000e0: 4d3d 803f 2fad 843f 4fda 613f f60c 7c3f
000000f0: a3bb 6e3f bd77 6e3f ed7d 973f 9c78 763f

bias f4 [64]
-0.007666055 -0.01809826 -0.00085155404 -0.027070368 -0.00026592 -0.063011445 -0.005867547 -0.051818147
0.0023280429 0.09077657 -0.0037682499 -0.001853809 -0.045128684 -0.000651362 0.007377686 0.0019003542
0.000396598 -0.027135272 -0.013901667 -0.087389015 0.00072984386 0.0030154376 -0.024794446 0.0014972795
0.0089879325 -0.0011019114 -0.031060187 -0.29132897 -0.01337552 0.00015158093 -0.04683891 -0.0036121455
0.009317841 -0.07700739 -0.009241141 -0.007910917 -0.1891438 -0.0061531416 -0.122685075 -0.0053839628
-0.009265634 -0.016473625 0.0070522088 0.0016230694 -0.007527882 -0.0037360375 -0.02675394 -0.00122022
0.0002058794 -0.15455505 -0.051469136 -0.019619936 -0.0022537403 -0.002143202 -0.23800023 0.0030894042
-0.005937327 -0.07067881 0.0019808025 0.00018448176 -0.020137062 -0.0002366456 -0.042989038 -0.007139355
00000000: 8833 fbbb cd42 94bc d33a 5fba adc2 ddbc
00000010: 2e6b 8bb9 250c 81bd 8d44 c0bb 443f 54bd
00000020: 1492 183b 11e9 b93d bef4 76bb 82fb f2ba
00000030: dbd8 38bd 2ac0 2aba 84c0 f13b 4e15 f93a
00000040: 7cee cf39 ca4a debc d1c3 63bc 03f9 b2bd
00000050: fe52 3f3a a69e 453b b91d cbbc 5d40 c43a
00000060: 1f42 133c 036e 90ba ef71 febc 1229 95be
00000070: ff24 5bbc b2f1 1e39 28da 3fbd bfb9 6cbb
00000080: dca9 183c 0db6 9dbd 2868 17bc ca9c 01bc
00000090: eaae 41be 4ba0 c9bb 5042 fbbd f46b b0bb
000000a0: e3ce 17bc b2f3 86bc 3716 e73b 2cbd d43a
000000b0: 73ac f6bb 4fd8 74bb 142b dbbc caef 9fba
000000c0: 55e1 5739 ae43 1ebe 4dd1 52bd fdb9 a0bc
000000d0: 7db3 13bb f674 0cbb 55b6 73be 9a77 4a3b
000000e0: e98d c2bb 0dc0 90bd 5ad0 013b 7271 4139
000000f0: 7bf6 a4bc 1224 78b9 4615 30bd 40f1 e9bb

running_mean f4 [64]
-0.16019979 -0.042336013 0.07915278 0.1697142 0.046018153 0.18877646 -0.078610085 0.21534093
-0.18319137 -0.0431158 -0.17130734 -0.15745382 -0.04851001 0.07861093 -0.056531616 0.0052116187
0.20783757 0.10619219 -0.16586672 0.11685476 0.07834192 -0.058117516 0.112605594 0.0041465834
0.10435836 -0.19310234 -0.2094364 -0.080141194 -0.0253205 -0.20154755 0.21597719 -0.13787188
-0.121011704 -0.0034441776 0.07446347 -0.1278146 0.13814491 0.008576818 -0.0502445 -0.06277446
-0.094323345 -0.10781254 0.06884489 -0.19048461 0.06355053 -0.18360569 0.13296413 -0.005891427
0.14629957 -0.13402526 -0.2680428 -0.14828146 0.1514407 -0.061107572 -0.03699114 -0.041932095
-0.023556344 0.18502799 -0.14274375 0.021217993 -0.15028667 0.16303256 -0.045700323 0.029245365
00000000: 6a0b 24be 8768 2dbd da1a a23d 8fc9 2d3e
00000010: 887d 3c3d 9e4e 413e 53fe a0bd 5582 5c3e
00000020: 8596 3bbe 319a 30bd 316b 2fbe 933b 21be
00000030: 6fb2 46bd c4fe a03d b28d 67bd 3ac6 aa3b
00000040: 5fd3 543e 4a7b d93d f7d8 29be 8c51 ef3d
00000050: bb71 a03d a20c 6ebd c39d e63d 10e0 873b
00000060: d6b9 d53d 9fbc 45be 7f76 56be 1121 a4bd
00000070: f06c cfbc 7b62 4ebe 2029 5d3e 492e 0dbe
00000080: fcd4 f7bd b6b7 61bb 4e80 983d d5e1 02be
00000090: dc75 0d3e c885 0c3c 2dcd 4dbd e58f 80bd
000000a0: 992c c1bd d2cc dcbd 8dfe 8c3d 660e 43be
000000b0: c826 823d 2103 3cbe c027 083e df0c c1bb
000000c0: 8ecf 153e eb3d 09be e83c 89be 18d7 17be
000000d0: 4513 1b3e ef4b 7abd 0684 17bd fdc0 2bbd
000000e0: 3cf9 c0bc fa77 3d3e 6b2b 12be 5bd1 ad3c
000000f0: c0e4 19be 02f2 263e 4330 3bbd fa93 ef3c

running_var f4 [64]
0.020959342 0.02364364 0.022047654 0.026814792 0.024099823 0.025003277 0.021517895 0.026790297
0.022073667 0.01810717 0.024825865 0.0250846 0.021384612 0.023357168 0.019512068 0.024149751
0.019291285 0.031992674 0.016356692 0.024689214 0.02582146 0.022309538 0.02032765 0.022283154
0.020486731 0.025273295 0.032171287 0.01965845 0.019984508 0.02293852 0.027224688 0.019349791
0.022497067 0.030076368 0.020492844 0.023891158 0.02188171 0.017429115 0.020790493 0.014413649
0.025635876 0.02120275 0.022868278 0.022743687 0.014542454 0.028939292 0.02641807 0.02122904
0.020912234 0.02504373 0.04105082 0.014603674 0.021833343 0.01945325 0.0209216 0.017271958
0.015042604 0.019434584 0.01580046 0.0260251 0.022045612 0.021891851 0.049320724 0.018608088
00000000: edb2 ab3c 4fb0 c13c 489d b43c b2aa db3c
00000010: fe6c c53c acd3 cc3c 4c46 b03c 5377 db3c
00000020: d6d3 b43c 7d55 943c 9d5f cb3c 387e cd3c
00000030: c82e af3c 8857 bf3c c6d7 9f3c b3d5 c53c
00000040: c208 9e3c c00a 033d 78fe 853c 0941 ca3c
00000050: 8787 d33c 7ec2 b63c 2c86 a63c 298b b63c
00000060: cad3 a73c f109 cf3c 0ac6 033d c20a a13c
00000070: 8db6 a33c 90e9 bb3c 4f06 df3c 7483 9e3c
00000080: c54b b83c b762 f63c 9ce0 a73c 64b7 c33c
00000090: 4641 b33c 81c7 8e3c d350 aa3c 3a27 6c3c
000000a0: 5402 d23c 64b1 ad3c 4156 bb3c f850 ba3c
000000b0: 7943 6e3c 1812 ed3c b56a d83c 86e8 ad3c
000000c0: 2250 ab3c 8228 cd3c e824 283d 4044 6f3c
000000d0: d7db b23c 6c5c 9f3c c663 ab3c ec7d 8d3c
000000e0: 4175 763c 4735 9f3c f76f 813c 9732 d53c
000000f0: 0099 b43c 8a56 b33c 8704 4a3d fd6f 983c

weight f4 [64, 64, 3, 3]
-0.0020306567 0.018159198 -0.038083073 -0.044612207 -0.043198355 -0.036544602 0.05701512 0.070893124
0.014097856 -0.006445798 -0.031795293 -0.05671212 -0.0022729759 0.011920555 -0.0004773035 0.078991786
0.029100662 -0.00090193684 0.016053595 0.009839702 -0.012610555 0.02591396 0.01000005 0.01824319
0.022294417 -0.014390551 -0.05629639 -0.034311544 -0.03752721 -0.031785343 -0.02455095 0.052146595
0.019506522 0.036939897 0.003775748 -0.032240357 0.049925745 0.06336769 0.015122367 -0.04939174
0.035840135 -0.031711612 0.0035445949 0.0050344737 -0.020057376 0.0032904334 -0.01302166 0.014122886
0.0014572383 -0.027717728 -0.044889335 -0.0015042734 -0.011334759 0.0080989525 0.013501724 -0.027069364
-0.023903547 -0.051200837 -0.0025809256 -0.032288987 0.034502346 0.016222773 -0.0066807894 -0.019016825
-0.08449583 -0.06585255 0.053439967 -0.016315272 0.011499897 0.06844436 0.041846212 -0.020848665
-0.0016541947 0.054719515 -0.011830037 -0.04059774 -0.024152037 -0.020336425 0.05784341 0.033332467
-0.03706355 0.010572892 -0.0013661879 -0.028228074 0.05793377 -0.006782032 0.010363887 0.049227264
-0.0033677695 0.00092407956 0.026751686 0.048401006 0.018514555 0.010740855 0.009003168 0.0064074323
-0.00020890617 0.024152426 -0.004442615 -0.036043745 0.016672963 0.037652075 -0.034181356 -0.016138267
-0.0045280745 0.026236126 -0.001098819 -0.036988463 0.04633896 -0.029015476 -0.015405102 0.06309094
-0.0059168744 -0.045873277 0.045657575 0.04487989 -0.020684201 -0.03235916 0.0022662084 0.012421226
0.0073641925 -0.04242802 -0.07701601 -0.0023761834 -0.0037383821 -0.04317131 -0.01816629 -0.03944774
-0.04785139 -0.019954558 -0.04992991 0.023888484 -0.018458517 -0.0274171 0.031707022 -0.02792086
0.03618685 -0.027411055 -0.006407095 -0.011915184 -0.009961396 0.02384835 0.034454934 -0.0049097617
-0.0059591588 0.0017038651 -0.06454404 -0.0053433445 -0.05456943 -0.027025124 0.061032936 0.044923406
-0.014268133 0.010204676 -0.014191274 -0.04439988 0.011326318 -0.022966517 -0.039896097 0.047506016
0.053961303 0.060744334 0.028514542 0.05640687 -0.014038478 0.06550347 -0.029307509 0.0036765519
0.04703633 0.045458697 -0.023755128 0.066221505 0.048545174 0.09498587 0.053413372 0.024750361
0.02199317 0.041974332 0.014180342 -0.055959206 0.021822328 0.018568058 0.053939555 -0.04224419
-0.060974278 -0.036206506 0.033639915 0.005586862 -0.035980094 0.022438727 0.005664211 -0.06381966
0.05902255 0.008049586 -0.022600133 0.11094817 0.02144784 -0.012713482 0.00026331667 -0.025887227
-0.03646796 0.02843452 0.027973197 0.0338994 -0.012598485 -0.015169123 0.027105024 0.013536831
-0.02063873 -0.08392999 -0.03050654 -0.06455423 -0.0701629 0.03531619 -0.006073563 0.00857238
0.0128803775 -0.027503885 -0.04853199 0.027825981 0.02778358 0.0144857 0.039896213 0.014896224
0.03883887 -0.0058793654 -0.018547244 -0.046178147 -0.06183019 0.0057741264 -0.0568552 0.021205174
0.012715537 -0.0012967727 0.007918197 0.018294986 0.0017222558 0.0048117633 -0.021555446 -0.012346597
0.069541164 0.03177969 0.010771192 0.0386472 0.018768694 0.008493842 0.095592275 0.055515505
0.09530048 0.076552264 0.020147137 -0.063050896 -0.011446062 -0.07825923 -0.09273995 -0.066886276
00000000: c414 05bb 99c2 943c fffc 1bbd 4abb 36bd
00000010: c2f0 30bd cbaf 15bd b088 693d 6a30 913d
00000020: b2fa 663c 4637 d3bb c83b 02bd f84a 68bd
00000030: 35f6 14bb 6e4e 433c 973e fab9 72c6 a13d
00000040: 8364 ee3c f56f 6cba d482 833c b436 213c
00000050: 809c 4ebc 8349 d43c 40d7 233c be72 953c
00000060: c8a2 b63c 58c6 6bbc 0b97 66bd 438a 0cbd
00000070: 22b6 19bd 5931 02bd 131f c9bc ab97 553d
00000080: 24cc 9f3c 4a4e 173d 8a72 773b 770e 04bd
00000090: f07e 4c3d ebc6 813d cec3 773c fe4e 4abd
000000a0: 1bcd 123d 09e4 01bd 6f4c 683b 3af8 a43b
000000b0: 5e4f a4bc 50a4 573b cd58 55bc ad63 673c
000000c0: ce00 bf3a 4a10 e3bc e1dd 37bd 0a2b c5ba
000000d0: 6db5 39bc 78b1 043c 5636 5d3c 92c0 ddbc
000000e0: 5fd1 c3bc f8b7 51bd bf24 29bb 7541 04bd
000000f0: 5552 0d3d 9fe5 843c 86ea dabb 2cc9 9bbc
00000100: 260c adbd b4dd 86bd dee3 5a3d 9ba7 85bc
00000110: 106a 3c3c 8e2c 8c3d ef66 2b3d d2ca aabc
00000120: 90d1 d8ba 9221 603d c6d2 41bc d149 26bd
00000130: 7eda c5bc 9398 a6bc 36ed 6c3d a087 083d
00000140: f3cf 17bd ec39 2d3c a911 b3ba 903e e7bc
00000150: f64b 6d3d cf3b debb 4bcd 293c 87a2 493d
00000160: ccb5 5cbb ee3d 723a 5a26 db3c 2240 463d
00000170: d6ab 973c 69fa 2f3c 0682 133c 70f5 d13b
00000180: d30d 5bb9 4fdb c53c 5b93 91bb 9ba2 13bd
00000190: bd95 883c 1039 1a3d c001 0cbd 6634 84bc
000001a0: 3e60 94bb 25ed d63c 3f06 90ba 3781 17bd
000001b0: eccd 3d3d ddb1 edbc ae65 7cbc d335 813d
000001c0: 57e2 c1bb 9ee5 3bbd 7003 3b3d fad3 373d
000001d0: ea71 a9bc 0a8b 04bd ab84 143b 6682 4b3c
000001e0: 534f f13b 01c9 2dbd 92ba 9dbd beb9 1bbb
000001f0: a5ff 74bb 66d4 30bd 79d1 94bc f493 21bd
00000200: d2ff 43bd be77 a3bc 4e83 4cbd c8b1 c33c
00000210: 5136 97bc d399 e0bc 39df 013d 4aba e4bc
00000220: aa38 143d 268d e0bc 9cf2 d1bb e737 43bc
00000230: 2035 23bc 9d5d c33c 9e20 0d3d 11e2 a0bb
00000240: 0c45 c3bb 3a54 df3a aa2f 84bd 3917 afbb
00000250: 3284 5fbd cb63 ddbc acfd 793d 9b01 383d
00000260: e3c4 69bc 8331 273c 8482 68bc a6dc 35bd
00000270: 0592 393c 4724 bcbc 176a 23bd ab95 423d
00000280: 8706 5d3d 0dcf 783d 5497 e93c e40a 673d
00000290: a501 66bc af26 863d 4d16 f0bc 4ef2 703b
000002a0: 2ba9 403d e632 3a3d 1d9a c2bc 249f 873d
000002b0: 4ed7 463d f487 c23d fbc7 5a3d 45c1 ca3c
000002c0: 052b b43c 47ed 2b3d aa54 683c 7b35 65bd
000002d0: bdc4 b23c 0a1c 983c b9ef 5c3d 3e08 2dbd
000002e0: 2ac0 79bd 464d 14bd 02ca 093d ff11 b73b
000002f0: dd5f 13bd 6cd1 b73c d99a b93b e2b3 82bd
00000300: a1c1 713d 69e2 033c ea23 b9bc cb38 e33d
00000310: 61b3 af3c 354c 50bc c40d 8a39 7311 d4bc
00000320: 6d5f 15bd 83ef e83c 0c28 e53c 19da 0a3d
00000330: e069 4ebc ea87 78bc 5b0b de3c 96c9 5d3c
00000340: 8e12 a9bc 7de3 abbd dae8 f9bc 0235 84bd
00000350: 91b1 8fbd b6a7 103d bd04 c7bb 2b73 0c3c
00000360: 3808 533c d44f e1bc 7bc9 46bd 50f3 e33c
00000370: 649a e33c 6e55 6d3c 366a 233d 4b0f 743c
00000380: 8215 1f3d b1a7 c0bb 64f0 97bc 4c25 3dbd
00000390: a741 7dbd e234 bd3b 00e1 68bd 79b6 ad3c
000003a0: d454 503c 79f8 a9ba 53bb 013c 5edf 953c
000003b0: 51bd e13a ffab 9d3b 0c95 b0bc 6249 4abc
000003c0: 996b 8e3d 6c2b 023d a779 303c 874c 1e3d
000003d0: cec0 993c c129 0b3c e2c5 c33d 3a64 633d
000003e0: e62c c33d 6fc7 9c3d 9c0b a53c d420 81bd
000003f0: 4388 3bbc 6046 a0bd 71ee bdbd acfb 88bd

bias f4 [64]
-0.010157986 -0.1196261 -0.016486878 -0.16294499 0.011511313 -0.082125284 -0.097382426 0.0041087125
-0.05084393 -0.07367512 0.051594514 0.1015704 -0.09669667 0.06029073 0.030987326 0.035446715
0.10092172 -0.053777598 -0.1557411 0.04687837 -0.05779365 -0.06901422 0.007972667 -0.058850765
0.049122732 -0.20106478 0.08692118 -0.053338785 -0.006738486 -0.14021714 -0.11794477 -0.09620075
-0.0065575372 -0.06855507 -0.22458762 0.039716374 0.013436229 -0.036285054 0.07854425 0.018940335
0.044426855 -0.13233766 0.03993082 0.035262514 0.08079367 0.040638246 0.010227044 -0.008739946
0.021520652 -0.020888533 0.058305398 0.011081741 0.0012959717 0.055664826 -0.19236547 -0.042951223
0.07269733 0.007755475 0.0044788267 -0.100067146 0.00022144857 -0.21061642 0.083935566 -0.008153329
00000000: ae6d 26bc 87fe f4bd 7d0f 87bc 0ddb 26be
00000010: f299 3c3c 4d31 a8bd 7070 c7bd 61a2 863b
00000020: ba41 50bd fbe2 96bd c554 533d 2404 d03d
00000030: e708 c6bd 6af3 763d 22d9 fd3c 9330 113d
00000040: 0cb0 ce3d e645 5cbd 987a 1fbe 8903 403d
00000050: 09b9 6cbd 5457 8dbd ca9f 023c 800d 71bd
00000060: eb34 493d ede3 4dbe bb03 b23d c579 5abd
00000070: 84ce dcbb 1595 0fbe 078d f1bd e604 c5bd
00000080: 9ce0 d6bb 9a66 8cbd 4cfa 65be a3ad 223d
00000090: a123 5c3c a39f 14bd cfdb a03d c328 9b3c
000000a0: eff8 353d 8683 07be 808e 233d 6d6f 103d
000000b0: 2777 a53d 4a74 263d 558f 273c fe31 0fbc
000000c0: 144c b03c 6e1e abbc a4d1 6e3d 3190 353c
000000d0: 98dd a93a cd00 643d 74fb 44be 9fed 2fbd
000000e0: 56e2 943d a421 fe3b 1fc3 923b 01f0 ccbd
000000f0: a634 6839 d5ab 57be 69e6 ab3d 8a95 05bc

weight f4 [64]
1.3232917 1.206732 1.1057962 1.2136273 1.1299143 1.0269347 1.1566033 1.1407887
1.1321224 1.36188 1.3593485 1.134035 1.2842227 1.2474617 1.2908182 1.0795954
1.2353792 1.0995282 1.1491606 1.1014584 1.3322145 1.086556 1.1842153 1.3779671
1.0689015 1.0988015 1.2622586 1.2104294 1.1255325 1.2059071 1.111986 1.1496266
1.183941 1.3074299 1.3078982 1.1104745 1.3233949 1.2666289 1.0826843 1.1775723
1.1246814 1.1155325 1.3509803 1.0950781 1.1832072 1.2727678 1.1360106 1.3162045
1.1387862 1.2944651 1.1958958 1.0916976 1.1468831 1.1184764 1.2375052 1.2291107
1.1516377 1.0922304 1.1307573 1.091084 1.1272429 1.2769226 1.255182 1.0747668
00000000: 9f61 a93f 3276 9a3f bb8a 8d3f 2458 9b3f
00000010: 08a1 903f 9972 833f 940b 943f 5d05 923f
00000020: 63e9 903f 1552 ae3f 22ff ad3f 0f28 913f
00000030: 6961 a43f d3ac 9f3f 8839 a53f 2f30 8a3f
00000040: e820 9e3f 57bd 8c3f b217 933f 97fc 8c3f
00000050: 0186 aa3f 4414 8b3f 5e94 973f 3a61 b03f
00000060: c4d1 883f 87a5 8c3f b191 a13f 5aef 9a3f
00000070: 7311 903f 2a5b 9a3f 8f55 8e3f f726 933f
00000080: 618b 973f dd59 a73f 3569 a73f 0724 8e3f
00000090: 0165 a93f e520 a23f 6695 8a3f b0ba 963f
000000a0: 8ff5 8f3f c5c9 8e3f ecec ac3f 852b 8c3f
000000b0: 5573 973f 0eea a23f cc68 913f 6479 a83f
000000c0: bfc3 913f 08b1 a53f 1d13 993f bfbc 8b3f
000000d0: 11cd 923f 3c2a 8f3f 9266 9e3f 8053 9d3f
000000e0: dd68 933f 35ce 8b3f a8bc 903f a4a8 8b3f
000000f0: 7f49 903f 3372 a33f cea9 a03f f591 893f

bias f4 [64]
0.2908788 0.04992527 0.09138419 0.0437306 0.087125584 -0.04444738 -0.04930723 0.15442674
0.038556088 0.24424359 0.301984 0.13095622 0.14955035 0.15629515 0.32179993 0.09239512
0.13994586 0.032186028 -0.08401921 0.09154031 0.3068535 -0.06936685 0.09880365 0.36644754
0.021419542 -0.037682187 0.2760334 0.054026023 0.03838078 -0.068226546 -0.03146445 0.080767594
0.1130012 0.24504417 -0.09934034 0.13041052 0.261806 0.30361596 0.075670816 0.12510285
0.13531998 -0.043054737 0.32485667 0.07964971 0.14376827 0.2447663 0.106339924 0.23511983
0.089509994 0.32404646 0.17796595 0.06683797 0.12388596 0.060022037 -0.06517471 0.18441111
0.13871443 0.076418966 0.096925214 -0.063907035 0.104582004 0.0896388 0.12186808 0.054029662
00000000: 11ee 943e 717e 4c3d a227 bb3d dc1e 333d
00000010: e66e b23d 750e 36bd 61f6 49bd 0b22 1e3e
00000020: fdec 1d3d fe1a 7a3e a69d 9a3e 6319 063e
00000030: ba23 193e d60b 203e f6c2 a43e a739 bd3d
00000040: f84d 0f3e 7fd5 033d 4312 acbd 7c79 bb3d
00000050: e71b 9d3e 3510 8ebd 9159 ca3d 039f bb3e
00000060: 0978 af3c a358 1abd 4054 8d3e 644a 5d3d
00000070: 2a35 1d3d 5cba 8bbd dee0 00bd 7b69 a53d
00000080: 2c6d e73d dcec 7a3e f372 cbbd 568a 053e
00000090: 700b 863e 8d73 9b3e 4df9 9a3d f61a 003e
000000a0: 5291 0a3e 2a5a 30bd 9d53 a63e 631f a33d
000000b0: fd37 133e 04a4 7a3e bfc8 d93d 41c3 703e
000000c0: 0451 b73d 6be9 a53e b53c 363e 58e2 883d
000000d0: ecb7 fd3d abd9 753d 517a 85bd 44d6 3c3e
000000e0: 280b 0e3e 8c81 9c3d ba80 c63d b1e1 82bd
000000f0: 172f d63d 8c94 b73d f995 f93d 354e 5d3d

running_mean f4 [64]
0.8036628 -0.22884676 0.47697163 -0.051460266 0.7963957 -1.716285 -1.1575118 0.29380208
-1.4142972 -0.41446227 -0.12978703 0.22988531 -0.35284916 0.6947227 0.35596216 0.47371456
1.1259723 0.6822568 -1.2261777 -0.120006435 0.045695424 -1.7648664 -0.28537205 0.121555716
0.7189627 -1.2887628 0.41255903 -0.1546732 1.6903208 -1.4581023 -1.3337201 -0.28356683
0.9478234 -0.23505369 -1.5565404 -0.13114916 -0.28880963 0.06447017 0.79133296 0.7972955
0.5422689 -1.4602216 0.4593745 0.3757639 0.666546 1.4245274 0.17732303 0.7043359
-0.17626743 -0.19806781 0.2848766 0.35603064 0.35168365 1.0759228 -1.3803985 -0.6678506
0.3488261 0.789008 0.4905544 -1.7284964 0.87669194 -1.513737 0.23621829 0.6178149
00000000: d8bc 4d3f ce56 6abe a035 f43e 00c8 52bd
00000010: 97e0 4b3f 3aaf dbbf 5929 94bf 3a6d 963e
00000020: b107 b5bf 6634 d4be e4e6 04be 0e67 6b3e
00000030: a5a8 b4be 59d9 313f ac40 b63e b78a f23e
00000040: dc1f 903f 62a8 2e3f 64f3 9cbf efc5 f5bd
00000050: 202b 3b3d 24e7 e1bf 491c 92be 34f2 f83d
00000060: f10d 383f 2ef6 a4bf f03a d33e a762 1ebe
00000070: 6f5c d83f 19a3 babf 57b7 aabf ac2f 91be
00000080: 8ea4 723f eab1 70be b73c c7bf f74b 06be
00000090: dbde 93be f008 843d cc94 4a3f 8f1b 4c3f
000000a0: 22d2 0a3f 8be8 babf 2233 eb3e 2064 c03e
000000b0: c2a2 2a3f ea56 b63f 2b94 353e 5c4f 343f
000000c0: 737f 34be 4ad2 4abe 59db 913e a649 b63e
000000d0: e10f b43e d7b7 893f e6b0 b0bf 42f8 2abf
000000e0: 5699 b23e 6efc 493f f229 fb3e 5f3f ddbf
000000f0: e26e 603f 22c2 c1bf 35e3 713e 1e29 1e3f

running_var f4 [64]
0.8888389 0.20368613 1.0068582 0.22365153 0.999941 0.41872326 0.3073335 1.1454993
0.4567967 1.0742348 0.9130495 0.66260314 0.76479155 0.8724681 1.0182432 0.65343
0.81310225 0.59413403 0.3037752 0.6374221 1.0212973 0.47320616 0.82484555 0.855379
0.46837983 0.24928874 1.1862228 0.1791481 1.2676547 0.33165985 0.29508346 0.63916814
0.863512 0.87236047 0.37846062 1.2322066 0.28014964 1.1401422 0.80030686 0.95966625
0.65665466 0.32436156 0.9919804 0.6934909 0.8784233 0.97092694 0.93413025 1.0908035
0.7714527 0.992838 0.9074313 0.83191615 0.8941946 0.61846477 0.31968212 0.49779224
1.0976809 0.7493802 0.7336988 0.41306302 0.975475 0.41272637 0.7031872 0.9444738
00000000: f28a 633f 1993 503e bbe0 803f e804 653e
00000010: 22fc 7f3f e562 d63e d15a 9d3e b99f 923f
00000020: 42e1 e93e 8780 893f 9dbd 693f 5ca0 293f
00000030: 61c9 433f 125a 5f3f cb55 823f 3047 273f
00000040: 7827 503f 2b19 183f 6c88 9b3e 182e 233f
00000050: dfb9 823f 1448 f23e 1429 533f 1efa 5a3f
00000060: 7bcf ef3e 8c45 7f3e 26d6 973f 9972 373e
00000070: 8242 a23f 52cf a93e 2e15 973e 86a0 233f
00000080: 1f0f 5d3f 0453 5f3f 97c5 c13e f2b8 9d3f
00000090: c66f 8f3e 2ef0 913f e9e0 4c3f b0ac 753f
000000a0: 851a 283f b812 a63e 6df2 7d3f 9f88 313f
000000b0: 59e0 603f ab8e 783f 2923 6f3f 739f 8b3f
000000c0: ed7d 453f a22a 7e3f 6b4d 683f 75f8 543f
000000d0: f0e9 643f b553 1e3f 60ad a33e a0de fe3e
000000e0: cf80 8c3f 61d7 3f3f afd3 3b3f ff7c d33e
000000f0: bbb8 793f df50 d33e 1404 343f 09c9 713f

weight f4 [2, 64, 3, 3]
0.043672662 0.014805696 0.029344104 0.0641127 0.062680125 0.057506572 0.04808452 0.032220315
0.03916141 -0.03646857 0.0097785955 -0.025105575 0.0012905744 -0.022031903 -0.042082872 0.10467503
0.09908899 0.07272261 0.006065407 0.044835053 0.07062016 0.011565736 0.0064557516 0.030076124
0.0576106 0.0037373665 0.042913564 0.041307785 0.04387188 0.041891426 -0.015151551 -0.012440894
-0.018707624 0.05261375 0.04947529 0.08437842 0.05449011 0.067448355 0.041435532 0.030733453
0.020882616 0.022330137 0.009096282 0.05076094 0.04942626 0.0033498164 0.008400336 0.022397405
-0.000101996535 -0.026624138 0.0049636443 -0.038321663 -0.013378086 -0.07817507 -0.022362962 0.020475581
0.039231934 -0.003113811 0.026906114 0.04535868 -0.07119545 -0.05982264 -0.07184334 0.022485899
0.08957418 0.045503903 0.011925593 0.025144259 0.07220479 0.03208895 0.020520097 0.027792422
0.035641275 0.040500693 0.0011760606 0.008045547 0.033994224 0.0013927147 -0.037221413 -0.044556275
-0.0335976 0.0556621 0.09217214 0.081135444 0.020332893 0.028843712 0.03486631 0.034305654
0.011139644 0.010072743 0.053413935 0.037737265 0.013783407 0.060114723 0.09573685 0.031328257
0.018733991 0.04888747 0.017187597 0.012169982 0.04497591 0.024277112 0.052646812 0.064427555
0.11841541 0.036534443 0.039145336 0.057695404 0.060628183 0.05019559 0.09893118 0.029353105
0.053221464 0.05464249 0.006655758 0.044344883 0.023912648 0.013695407 0.046205435 0.017127922
0.063911796 0.075594574 0.080894195 0.027832052 0.012678241 0.013782932 0.017780978 0.03912438
0.04187975 0.018876096 0.02505639 0.0088109905 0.056029644 0.07304659 0.042896204 0.056445103
0.023651836 0.026000494 0.043346338 0.045134015 0.057709508 0.0962857 0.033865232 0.056016255
0.039624833 -0.0029061323 0.032251008 0.039887875 0.078303285 0.0539116 0.04395754 0.037142247
0.021128716 -0.008983027 -0.0024172969 -0.00789969 0.05506796 0.03162888 0.052691534 -0.009747273
0.03182663 0.025006602 0.042453256 0.02280763 0.0016065625 0.0030200663 0.023698686 0.037871666
-0.08360533 -0.07387661 -0.1053883 0.026107429 0.025111886 0.017679434 0.049838312 0.026216878
0.045173373 0.05699692 0.055517316 0.04447135 0.06396409 0.08827566 0.049370766 0.023370352
0.0804962 0.037531063 0.02102287 0.04580178 0.013136751 0.019485552 0.036871288 0.045885086
-0.0035560166 -0.03514935 -0.006185117 -0.08619018 -0.05993154 -0.06667005 0.09393858 0.03507994
0.05555269 0.03880073 0.00072894274 0.03331465 0.0022659039 0.03196406 -0.007824833 -0.018497348
0.03086177 0.073869765 0.07939763 0.08263302 0.09368265 -0.0057743993 0.038625367 0.041506596
0.011988272 -0.016921803 -0.012152684 0.06598799 0.044009797 0.0057400023 0.068125315 0.02140007
0.0051121037 0.001956168 0.02807645 0.027004585 -0.017711027 0.0051760324 0.011932907 -0.058652874
-0.03936631 -0.08269945 0.019145442 0.0029431335 0.043505143 0.024003439 0.045225285 0.011478308
0.03175841 0.03916406 0.039910883 -0.0006494243 0.02252481 0.0077889822 -0.031079207 -0.026182689
0.013520485 0.05189902 0.0775641 0.057727218 0.024490975 -0.0022133337 0.005207722 -0.043614812
00000000: 1be2 323d 9793 723c 0c63 f03c 854d 833d
00000010: 705e 803d 038c 6b3d 46f4 443d 73f9 033d
00000020: b767 203d 1160 15bd 6736 203c 35aa cdbc
00000030: 7e28 a93a 407c b4bc 175f 2cbd dd5f d63d
00000040: 2bef ca3d 97ef 943d 52c0 c63b f6a4 373d
00000050: 4da1 903d 367e 3d3c c58a d33b 3462 f63c
00000060: 18f9 6b3d 9bee 743b 22c6 2f3d 5a32 293d
00000070: 00b3 333d 5896 2b3d 363e 78bc e4d4 4bbc
00000080: bb40 99bc 8481 573d 9aa6 4a3d 98ce ac3d
00000090: 0631 5f3d 5d22 8a3d 4eb8 293d b9c4 fb3c
000000a0: 0512 ab3c b1ed b63c 9208 153c b4ea 4f3d
000000b0: 3173 4a3d 9888 5b3b 90a1 093c c37a b73c
000000c0: f9e6 d5b8 dd1a dabc 11a6 a23b 2df7 1cbd
000000d0: c22f 5bbc 401a a0bd 8832 b7bc 68bc a73c
000000e0: aab1 203d 1411 4cbb 366a dc3c 06ca 393d
000000f0: ecce 91bd 9608 75bd 9a22 93bd 5934 b83c
00000100: ab72 b73d 4d62 3a3d 9063 433c 55fb cd3c
00000110: 1be0 933d b46f 033d c319 a83c efac e33c
00000120: 96fc 113d 0ee4 253d 0c26 9a3a 78d1 033c
00000130: 873d 0b3d c08b b63a 7b75 18bd a480 36bd
00000140: a39d 09bd f1fd 633d bfc4 bc3d 572a a63d
00000150: 2b91 a63c a649 ec3c facf 0e3d 1684 0c3d
00000160: 0e83 363c 2508 253c 92c8 5a3d 6492 1a3d
00000170: cdd3 613c db3a 763d ae11 c43d 0f52 003d
00000180: 0778 993c 3a3e 483d 01cd 8c3c 9b64 473c
00000190: a938 383d cbe0 c63c 2fa4 573d 98f2 833d
000001a0: c783 f23d 24a5 153d dc56 203d 0452 6c3d
000001b0: 4255 783d e499 4d3d 6e9c ca3d ec75 f03c
000001c0: c0fe 593d ced0 5f3d 8b18 da3b fba2 353d
000001d0: 75e4 c33c b362 603c e941 3d3d db4f 8c3c
000001e0: 30e4 823d 54d1 9a3d dbab a53d 0b00 e43c
000001f0: 66b8 4f3c cfd1 613c 6aa9 913c e340 203d
00000200: 1a8a 2b3d 0ba2 9a3c 0f43 cd3c f95b 103c
00000210: 577f 653d 7399 953d eeb3 2f3d fb32 673d
00000220: 7fc1 c13c fdfe d43c ee8b 313d 72de 383d
00000230: ce60 6c3d 7031 c53d 45b6 0a3d 4d71 653d
00000240: a64d 223d cf74 3ebb a219 043d 7861 233d
00000250: 795d a03d 69d2 5c3d d20c 343d 7822 183d
00000260: 2116 ad3c 8c2d 13bc 836b 1ebb b46d 01bc
00000270: f18e 613d 498d 013d 14d3 573d 07b3 1fbc
00000280: a45c 023d a5da cc3c 77e3 2d3d 11d7 ba3c
00000290: 4b93 d23a 4eec 453b bf23 c23c 521f 1b3d
000002a0: 4539 abbd 9f4c 97bd d2d5 d7bd 3fdf d53c
000002b0: 71b7 cd3c 76d4 903c 4223 4c3d c7c4 d63c
000002c0: b707 393d 9a75 693d 2066 633d 9727 363d
000002d0: 9bff 823d dfc9 b43d 0039 4a3d 2e73 bf3c
000002e0: 31db a43d 2cba 193d 2738 ac3c a69a 3b3d
000002f0: 873b 573c 2aa0 9f3c 5906 173d 00f2 3b3d
00000300: 0f0c 69bb c4f8 0fbd 86ac cabb 7a84 b0bd
00000310: c67a 75bd 4f8a 88bd df62 c03d fcaf 0f3d
00000320: 388b 633d 84ed 1e3d 8516 3f3a f174 083d
00000330: 8f7f 143b bfec 023d ba33 00bc c087 97bc
00000340: d3d1 fc3c 0849 973d 3a9b a23d 803b a93d
00000350: b0dc bf3d 2c37 bdbb a235 1e3d d202 2a3d
00000360: 756a 443c 989f 8abc 0d1c 47bc b624 873d
00000370: 9e43 343d a116 bc3b 4985 8b3d 334f af3c
00000380: 6f83 a73b 0e33 003b 9500 e63c b838 dd3c
00000390: b716 91bc b59b a93b 3d82 433c ff3d 70bd
000003a0: 913e 21bd 545e a9bd e7d6 9c3c 96e1 403b
000003b0: 7332 323d dca2 c43c 263e 393d 830f 3c3c
000003c0: 1b15 023d 7e6a 203d 9879 233d 213e 2aba
000003d0: f385 b83c b83a ff3b d299 febc 147d d6bc
000003e0: 0685 5d3c 1194 543d edd9 9e3d 6073 6c3d
000003f0: 4ca1 c83c 940d 11bb 8aa5 aa3b 72a5 32bd

bias f4 [2]
0.06466384 -0.003424473
00000000: 7a6e 843d 206d 60bb

weight f4 [64, 2, 3, 3]
-0.0005189132 -0.006091532 0.016464667 -0.032932278 0.020298578 0.045355026 0.0112517215 0.00030016937
0.031791225 -0.0019887665 -0.03464562 0.02192339 0.047050025 -0.00030421853 -0.07126658 -0.0174075
0.026670923 -0.035676904 0.048223674 -0.028796818 0.01959625 0.01383803 -0.003516309 0.051821295
0.0057317303 -0.014756155 -0.0012101505 -0.024501434 0.059024006 0.036407847 -0.0030585108 0.018649241
-0.026705144 -0.01000985 -0.04682902 -0.011715007 -0.038960967 -0.013301436 -0.017105643 -0.03836863
0.014862403 0.025241999 0.010542427 -0.018075291 -0.015106681 -0.030157002 -0.039320275 -0.0406799
0.021635173 -0.0035647852 -0.02786676 0.011482688 0.042054955 0.027582707 -0.012908302 -0.045286108
-0.04188239 0.007328059 0.0091623785 0.027879942 0.032657348 0.0011594899 0.010058967 -0.0076056784
0.06261881 0.0085607795 -0.008206549 0.026924074 0.007506498 -0.007984239 0.029219372 -0.017399773
-0.0016497823 -0.0012889742 0.0031147583 0.008764756 0.0065097604 0.03837511 0.018997988 -0.0066923415
-0.024209842 -0.04832515 -0.0028500499 -0.037541006 -0.020154264 0.019430717 -0.048878532 0.011214284
0.0045548435 0.030383646 -0.023510655 0.031861164 0.014541871 -0.0029981374 0.017517896 0.01573575
-0.033165213 0.0089468565 -0.0435901 0.010448314 -0.051729232 -0.030124383 -0.014557344 -0.09689253
-0.011756704 0.0065277996 -0.009154074 -0.0168856 0.03556921 0.004260111 0.027999472 0.05234507
-0.040243763 0.0018021341 0.0161627 -0.06570022 0.011231797 0.024720283 0.009811218 0.0054970863
0.025588267 -0.023207927 -0.01728097 -0.02353512 0.010960076 -0.0131339785 -0.023455625 0.015797695
0.04441023 -0.0037799994 0.0010104661 0.042008717 -0.04513806 0.017732695 0.037591036 -0.009060707
-0.037673887 -0.019076958 -0.055311315 -0.034807503 -0.021624962 0.013545839 -0.018305989 0.0357573
-0.0031947915 0.033701506 -0.041310646 -0.012651505 0.0056891977 0.0018330851 0.00046074655 0.027280893
0.0010418639 -0.027239483 -0.013355371 0.052288387 0.009374014 -0.018052343 0.0027183946 -0.023604568
-0.016418368 0.03071884 -0.0060229814 0.004748095 0.00035850535 -0.037075493 0.007062252 0.0063223145
0.011966469 0.0098447045 -0.011172255 0.023055505 -0.015433348 -0.0027699028 0.025523122 -0.051555894
-0.02280031 -0.03634724 -0.013905434 0.0524017 -0.0028998135 -0.010920555 0.0039110393 -0.011184694
0.009004488 -0.0040997355 0.00435687 0.05592845 -0.027722456 -0.010088188 0.015685603 -0.016255321
-0.005729228 -0.04091024 0.037544437 -0.0050007836 -0.10419903 0.039542276 -0.024741229 -0.007958536
-0.008631466 -0.06575737 0.037045103 0.026505534 0.017765597 0.02282963 -0.032358784 0.0035337019
-0.0031403014 0.015602271 0.038285755 -0.0665729 -0.09695236 -0.01500389 0.005196362 0.003975
0.0064721773 0.018710257 -0.041096553 -0.01926945 -0.0045646713 0.018044313 0.0110818 0.007156374
0.01533222 -5.97112e-07 -0.02713755 0.09084656 -0.0053939093 -0.004006647 -0.012601923 0.020349288
-0.016064428 0.02940008 -0.008053762 -0.005920955 0.03563832 0.024963316 -0.00042112864 -0.0043911925
0.014178507 0.03552183 0.02163022 0.011586491 0.017168509 -0.013868552 0.013797468 -0.008596816
0.04271801 0.026004119 0.033707377 0.00943537 0.041413765 0.0053380127 -0.022786835 0.028615417
00000000: ad07 08ba 799b c7bb e9e0 863c ffe3 06bd
00000010: 3449 a63c 31c6 393d 2459 383c 0d60 9d39
00000020: 8437 023d f755 02bb 91e8 0dbd ae98 b33c
00000030: 87b7 403d 857f 9fb9 36f4 91bd 2c9a 8ebc
00000040: fb7c da3c f221 12bd 3086 453d 4ee7 ebbc
00000050: 5188 a03c e8b8 623c e071 66bb 9142 543d
00000060: 3dd1 bb3b cdc3 71bc ea9d 9eba 3bb7 c8bc
00000070: 28c3 713d 6520 153d 4c71 48bb 4bc6 983c
00000080: bfc4 dabc 5b00 24bc c9cf 3fbd 4df0 3fbc
00000090: 8995 1fbd 44ee 59bc 2221 8cbc 6d28 1dbd
000000a0: 7081 733c 4fc8 ce3c 25ba 2c3c a212 94bc
000000b0: 0382 77bc d10b f7bc 4c0e 21bd f89f 26bd
000000c0: 3f3c b13c 2c9f 69bb d548 e4bc e221 3c3c
000000d0: d141 2c3d 21f5 e13c 587d 53bc ed7d 39bd
000000e0: de8c 2bbd 3720 f03b cd1d 163c 7a64 e43c
000000f0: b6c3 053d 06fa 973a 5ece 243c 0e39 f9bb
00000100: 4a3e 803d 8342 0c3c c374 06bc e08f dc3c
00000110: 12f9 f53b 53d0 02bc 775d ef3c f889 8ebc
00000120: 823d d8ba ccf2 a8ba f920 4c3b 0d9a 0f3c
00000130: d44f d53b 382f 1d3d aba1 9b3c 6e4b dbbb
00000140: b853 c6bc 98f0 45bd e7c7 3abb 99c4 19bd
00000150: 8e1a a5bc 2b2d 9f3c db34 48bd 1ebc 373c
00000160: cc40 953b 20e7 f83c 6b99 c0bc da80 023d
00000170: 0741 6e3c 667c 44bb b181 8f3c 42e8 803c
00000180: 3fd8 07bd d695 123c 888b 32bd 682f 2b3c
00000190: 08e2 53bd 69c7 f6bc ed81 6ebc 976f c6bd
000001a0: 319f 40bc 27e7 d53b f8fa 15bc ab53 8abc
000001b0: 05b1 113d 6798 8b3b 265f e53c c967 563d
000001c0: a5d6 24bd 9635 ec3a a367 843c d68d 86bd
000001d0: 9205 383c 3182 ca3c 3bbf 203c e720 b43b
000001e0: 7c9e d13c 8d1e bebc d290 8dbc b9cc c0bc
000001f0: e491 333c e62f 57bc 0326 c0bc 2b6a 813c
00000200: 80e7 353d deb9 77bb 9e71 843a 5511 2c3d
00000210: b0e2 38bd 2844 913c 0ff9 193d 5c73 14bc
00000220: ef4f 1abd 4847 9cbc 1e8e 62bd 5092 0ebd
00000230: d526 b1bc 5eef 5d3c 71f6 95bc 3f76 123d
00000240: b55f 51bb 970a 0a3d 5a35 29bd 4248 4fbc
00000250: 736c ba3b 2144 f03a 5b90 f139 2e7c df3c
00000260: 278f 883a 5625 dfbc 7cd0 5abc 592c 563d
00000270: 7795 193c 82e2 93bc 1827 323b 5e5e c1bc
00000280: d07f 86bc 14a6 fb3c 6e5c c5bb e895 9b3b
00000290: c6f5 bb39 79dc 17bd 776a e73b 6b2b cf3b
000002a0: 020f 443c af4b 213c d50b 37bc e6de bc3c
000002b0: 27dc 7cbc 4287 35bb de15 d13c 462c 53bd
000002c0: b7c7 babc d8e0 14bd 9ed3 63bc 2aa3 563d
000002d0: cc0a 3ebb 21ec 32bc 2d28 803b 0240 37bc
000002e0: 8f87 133c 1357 86bb 13c4 8e3b 3b15 653d
000002f0: 341a e3bc ed48 25bc 187f 803c e129 85bc
00000300: 3fbc bbbb 7f91 27bd 32c8 193d 9ddd a3bb
00000310: 4d66 d5bd 15f7 213d 1eae cabc 8564 02bc
00000320: fe6a 0dbc cdab 86bd 9bbc 173d 2222 d93c
00000330: 2889 913c 3405 bb3c a58a 04bd ae95 673b
00000340: 84cd 4dbb aba0 7f3c 86d1 1c3d 5f57 88bd
00000350: f58e c6bd e0d2 75bc 3e46 aa3b b840 823b
00000360: 8f14 d43b 4146 993c dc54 28bd f7da 9dbc
00000370: 3d93 95bb abd1 933c 7090 353c 0480 ea3b
00000380: fe33 7b3c 3949 20b5 914f debc c30d ba3d
00000390: 64bf b0bb 314a 83bb 4c78 4ebc 8db3 a63c
000003a0: 8c99 83bc 70d8 f03c edf3 03bc 9204 c2bb
000003b0: 7df9 113d de7f cc3c eeca dcb9 fee3 8fbb
000003c0: f84c 683c 577f 113d dc31 b13c 44d5 3d3c
000003d0: f9a4 8c3c ec38 63bc c60e 623c a9d9 0cbc
000003e0: 14f9 2e3d 9706 d53c bf10 0a3d cf96 1a3c
000003f0: 7ba1 293d 7fea ae3b 75ab babc e16a ea3c

bias f4 [64]
-0.1388006 -0.07417452 -0.0403178 0.12558968 0.18298273 -0.11294295 -0.19008179 -0.2158774
-0.1678318 0.18685052 0.097462885 -0.20265993 -0.25374168 0.1609059 0.13260643 0.2726509
0.08481184 0.1483691 0.014347385 -0.02339943 0.17192544 -0.1202051 -0.15434659 -0.008979104
0.1133817 -0.23443681 -0.007319041 0.012418504 -0.1013482 0.17388566 -0.1257886 -0.24080025
-0.046949666 -0.16741459 -0.22593266 -0.1169617 0.07129076 0.049660947 -0.20399316 -0.09008058
0.2170171 -0.051741928 -0.07517464 0.0002105379 0.14360897 0.1563537 0.20242384 -0.03670042
0.1758602 0.046024363 -0.12035464 0.14020835 -0.014345915 0.03810909 -0.03455876 0.215994
0.13495126 -0.20590062 -0.15241612 -0.15345092 0.050736878 -0.16402212 0.17807396 -0.079279214
00000000: bf21 0ebe d0e8 97bd 4724 25bd 959a 003e
00000010: d35f 3b3e a24e e7bd cda4 42be f70e 5dbe
00000020: 19dc 2bbe be55 3f3e 9f9a c73d 1686 4fbe
00000030: 6eea 81be 84c4 243e fbc9 073e e698 8b3e
00000040: d4b1 ad3d 12ee 173e 4b11 6b3c 29b0 bfbc
00000050: 390d 303e 172e f6bd 080d 1ebe 181d 13bc
00000060: aa34 e83d 3410 70be 91d4 efbb fb76 4b3c
00000070: a58f cfbd 150f 323e bace 00be 5794 76be
00000080: 4b4e 40bd bb6e 2bbe e45a 67be 9e89 efbd
00000090: e400 923d 4769 4b3d 95e3 50be 2b7c b8bd
000000a0: bb39 5e3e 58ef 53bd 29f5 99bd d6c3 5c39
000000b0: 3b0e 133e 2f1b 203e 3248 4f3e 2e53 16bd
000000c0: b214 343e 0b84 3c3d 7e7c f6bd c792 0f3e
000000d0: 210b 6bbc 4718 1c3d 7c8d 0dbd 882d 5d3e
000000e0: aa30 0a3e 9dd7 52be f912 1cbe 3d22 1dbe
000000f0: 79d1 4f3d 6af5 27be 0559 363e 245d a2bd

weight f4 [64]
0.97144544 0.9534457 0.97970134 0.996268 0.96052665 1.0655468 0.9694432 0.92263293
1.0120687 1.0189048 0.993591 0.9803514 1.0537305 0.920885 0.9982704 1.0736283
1.0153885 0.9576411 0.98157865 0.9927159 0.99321955 0.9427368 1.1048942 0.9316878
0.9983297 1.096063 0.9596301 0.9680586 1.0083288 1.0176756 0.97381055 1.0557784
1.0302787 0.9494159 1.0142361 0.93564105 0.96823686 0.9824665 1.0344136 1.0065918
0.9867728 1.0190535 0.9355899 0.96592236 1.0368041 1.0368143 1.0266496 0.9859383
1.0250332 0.9836368 1.1254032 0.9710058 0.9786048 0.9965337 0.9503836 0.99569666
0.9992571 0.95506597 0.98874885 0.97523063 0.9787983 0.9558745 0.9539515 0.9628193
00000000: a6b0 783f 0415 743f b5cd 7a3f 6b0b 7f3f
00000010: 13e5 753f d663 883f 6e2d 783f ac31 6c3f
00000020: 788b 813f 796b 823f fb5b 7e3f 4ff8 7a3f
00000030: a4e0 863f 1fbf 6b3f a68e 7f3f a76c 893f
00000040: 40f8 813f f827 753f bd48 7b3f a122 7e3f
00000050: a343 7e3f 3357 713f 2c6d 8d3f 1783 6e3f
00000060: 8992 7f3f cb4b 8c3f 51aa 753f b0d2 773f
00000070: eb10 813f 3243 823f a64b 793f bf23 873f
00000080: 2ce0 833f ec0c 733f 7dd2 813f 2c86 6f3f
00000090: 5fde 773f ed82 7b3f aa67 843f 00d8 803f
000000a0: 249d 7c3f 5870 823f d282 6f3f b046 773f
000000b0: ffb5 843f 55b6 843f 4169 833f 7466 7c3f
000000c0: 4a34 833f 9fcf 7b3f 360d 903f d693 783f
000000d0: d885 7a3f d51c 7f3f 574c 733f fae5 7e3f
000000e0: 50cf 7f3f 347f 743f a51e 7d3f b7a8 793f
000000f0: 8692 7a3f 31b4 743f 2a36 743f 537b 763f

bias f4 [64]
0.02625809 -0.026148558 -0.011412217 -0.09622975 -0.035857942 -0.01665778 -0.066562906 -0.00544336
-0.058354232 -0.13355975 -0.03939272 -0.06585097 -0.14919725 -0.045280125 -0.024915988 0.0051108813
-0.028736405 -0.052716006 -0.025859378 -0.054795712 -0.086139955 -0.010768916 -0.25890374 -0.09118225
-0.05144917 -0.01837385 -0.06394432 -0.047257002 -0.09446204 -0.099075966 -0.003369387 0.10790415
-0.017549677 -0.09378899 -0.20883943 -0.047651757 -0.0039741364 -0.038906842 -0.077032045 -0.055023372
-0.07688544 -0.03054847 -0.034559187 -0.039103948 -0.003488321 -0.13050765 -0.043596838 -0.0599826
0.010351663 -0.030455038 -0.02094236 -0.086756684 -0.00048244104 -0.07047961 -0.045851804 -0.07646466
-0.06830025 -0.024867523 -0.060471375 -0.047040503 -0.023081925 -0.022543546 0.0056996983 0.0070162853
00000000: 351b d73c 8035 d6bc 4ffa 3abc 1a14 c5bd
00000010: c7df 12bd e675 88bc 2252 88bd 375e b2bb
00000020: d904 6fbd e3c3 08be 435a 21bd e0dc 86bd
00000030: 2ac7 18be a777 39bd 9d1c ccbc 2e79 a73b
00000040: 9c68 ebbc bdec 57bd 0cd7 d3bc 7871 60bd
00000050: 256a b0bd 1c70 30bc 088f 84be c2bd babd
00000060: 5dbc 52bd c284 96bc 3df5 82bd 8f90 41bd
00000070: 5075 c1bd 57e8 cabd efd0 5cbb dafc dc3d
00000080: 57c4 8fbc 7114 c0bd 01da 55be 7d2e 43bd
00000090: 7939 82bb c85c 1fbd fac2 9dbd 3060 61bd
000000a0: 1d76 9dbd c940 fabc ef8d 0dbd 762b 20bd
000000b0: 519c 64bb cca3 05be 9992 32bd 51b0 75bd
000000c0: 069a 293c d87c f9bc 508f abbc 7dad b1bd
000000d0: 24f0 fcb9 9d57 90bd 1acf 3bbd 8199 9cbd
000000e0: 00e1 8bbd fab6 cbbc d5b0 77bd 8bad 40bd
000000f0: 4e16 bdbc 3ead b8bc 89c4 ba3b dee8 e53b

running_mean f4 [64]
-0.08018535 -0.007963053 -0.108266234 0.1225169 0.20815259 -0.13641949 -0.1581634 -0.16195151
-0.15872154 0.17396341 0.104083985 -0.23483688 -0.24094556 0.25107297 0.17631002 0.26755255
0.055078715 0.17495114 0.06746946 -0.05083344 0.09098908 -0.08360747 -0.14992999 -0.048694976
0.079574995 -0.24626784 -0.11422258 -0.1384795 -0.11543711 0.115105994 -0.09639023 -0.18021965
-0.018804086 -0.22223534 -0.24863443 0.000542694 0.10229043 -0.008088138 -0.2764458 -0.10108875
0.20935643 -0.0812291 -0.012518464 -0.01923287 0.13946924 0.11146224 0.22679041 -0.21904776
0.16731954 0.057305045 -0.12946802 0.17223854 -0.11581455 0.08280701 0.11341501 0.24291973
0.08035997 -0.24702564 -0.25015676 -0.094216056 -0.07061983 -0.103605956 0.27057576 -0.019936066
00000000: 3738 a4bd 7777 02bc b0ba ddbd 24ea fa3d
00000010: f425 553e 8db1 0bbe 96f5 21be 9ed6 25be
00000020: e687 22be 7723 323e fc29 d53d 1479 70be
00000030: 6fba 76be a38c 803e 9d8a 343e a6fc 883e
00000040: 389a 613d 6426 333e 6e2d 8a3d ba36 50bd
00000050: 7c58 ba3d 653a abbd 3f87 19be 6274 47bd
00000060: 37f8 a23d a32d 7cbe 87ed e9bd 92cd 0dbe
00000070: 4b6a ecbd b1bc eb3d 3e68 c5bd 808b 38be
00000080: 070b 9abc a991 63be 069a 7ebe 9443 0e3a
00000090: a57d d13d 1c84 04bc 4e8a 8dbe 9e07 cfbd
000000a0: 8861 563e 715b a6bd 3e1a 4dbc 408e 9dbc
000000b0: 06d1 0e3e 5146 e43d bf3b 683e 0e4e 60be
000000c0: d055 2b3e b2b8 6a3d 4493 04be 4d5f 303e
000000d0: 2e30 edbd b996 a93d 2146 e83d f3bf 783e
000000e0: c593 a43d 4af4 7cbe 8c14 80be 59f4 c0bd
000000f0: 21a1 90bd 5c2f d4bd e888 8a3e f650 a3bc

running_var f4 [64]
0.0016561652 0.0013968115 0.0013972885 0.000950191 0.0014750769 0.001026341 0.0006831408 0.003124841
0.00014727832 0.00014845947 0.00059832644 0.0010839797 0.00017776106 0.0016090436 0.0005189112 0.000512142
0.0008096679 0.0013491315 0.0010577391 0.0011963169 0.0013961542 0.00084223103 0.00013536915 0.001497411
0.0005353257 0.00039987318 0.0037202192 0.007515712 0.00029632373 0.0026139773 0.002025566 0.00071412907
0.0009783928 0.002201354 0.0003462088 0.004062309 0.0032688894 0.001158627 0.0013452633 0.00025271787
0.00015593058 0.00049017195 0.002034832 0.0006677028 0.00027469406 0.00075398944 0.0005361943 0.00847512
0.00065095554 0.00047355721 0.0010210768 0.00046906254 0.005381708 0.0010172422 0.007997487 0.00089295045
0.002380133 0.0014986196 0.003477029 0.0033605238 0.005093643 0.0037309814 0.004455401 0.0010462543
00000000: af13 d93a 3715 b73a 3925 b73a 3d16 793a
00000010: 5e57 c13a 4a86 863a ce14 333a 22ca 4c3b
00000020: b96e 1a39 c9ab 1b39 02d9 1c3a 5314 8e3a
00000030: 5f65 3a39 8be6 d23a 8b07 083a 4541 063a
00000040: e53f 543a 57d5 b03a d6a3 8a3a bccd 9c3a
00000050: 29ff b63a 2bc9 5c3a e1f1 0d39 c744 c43a
00000060: 1955 0c3a 12a6 d139 ecce 733b 5d46 f63b
00000070: e65b 9b39 434f 2b3b 5cbf 043b 6434 3b3a
00000080: 6a3d 803a 9744 103b 5c83 b539 1e1d 853b
00000090: dd3a 563b 12dd 973a 8c53 b03a 387f 8439
000000a0: 4c81 2339 e27e 003a d15a 053b c708 2f3a
000000b0: d004 9039 60a7 453a 648f 0c3a 3bdb 0a3c
000000c0: e3a4 2a3a c647 f839 a7d5 853a 82ec f539
000000d0: 0a59 b03b fc54 853a e407 033c e414 6a3a
000000e0: 01fc 1b3b 546d c43a dede 633b 3c3c 5c3b
000000f0: 93e8 a63b 7b83 743b 9dfe 913b 7822 893a
