generators/Generador_pared/generators.pth (torch, 668770 bytes, 56 tensors)

weight f4 [64, 2, 3, 3]
-0.010493766 0.007875081 -0.029409466 -0.043521814 0.019448884 0.022566603 -0.118613236 0.022952467
0.005911022 -0.023019664 -0.0062990594 -0.03942857 -0.029211057 -0.021387927 0.07168045 -0.02216462
-0.08332489 0.076238185 -0.0015590442 -0.08461224 -0.039378155 0.008529944 0.005437496 -0.0033758837
-0.04669333 -0.0006750692 -0.07132898 0.05963064 0.00459677 0.07313856 0.00255186 0.04398675
-0.0133796455 0.055447616 -0.044308424 0.0061981147 -0.0026589993 -0.00023290273 -9.728092e-05 0.09177845
-0.052578233 0.057459667 -0.008594782 0.003592483 -0.02696379 0.00068285374 0.0002456765 0.003177946
-0.012072144 0.050447322 -0.07721669 0.037765127 -0.022201383 -0.028075617 -0.0009373558 0.0012002282
-0.0002681026 0.046155877 -0.012249872 -0.034052107 -0.027359333 0.04457405 0.07181582 0.0011239188
0.0013727921 1.8634977e-05 0.025702346 -0.026899641 0.048688907 0.09217701 0.06306504 -0.025943557
-0.025039326 0.029665947 -0.013053025 0.02330076 -0.0035730775 -0.01570344 -0.035261888 -0.022653466
0.02904171 0.06630934 -0.01701355 0.05263966 -0.04891717 0.0054595536 0.040270835 0.08870591
-0.01888335 -0.02715133 0.0110176075 -0.0014904371 0.0011977064 -0.056042366 0.00723038 -0.0778973
-0.03612965 -0.050514583 -0.023389168 0.000344367 -0.005623331 -0.0008705189 0.07420504 0.025847182
0.011082056 0.10512561 -0.007133253 -0.04534615 0.017009381 0.049866006 -0.033775657 -0.06266496
-0.010867609 0.004213062 0.079579905 -0.01802744 -0.013329604 0.08345274 0.0014218603 -0.109758385
-0.014334231 0.0038802219 0.07491717 0.029759359 -0.0154467225 -0.0075449254 -0.007587833 -0.030869627
-0.083676465 0.09727547 0.0013636157 -0.012097886 0.0020216897 0.020242386 -0.029582549 -0.00912903
0.004679708 0.03920882 -0.03366885 -0.071635306 0.05239394 -0.012051969 0.0141376015 -0.03266354
0.00035227157 -0.0012642865 0.0009554971 0.0140406005 0.023534471 0.0843956 0.007530057 -0.020364571
-0.008925857 -0.002964751 0.0017260766 -0.0021677355 -0.11965719 0.060094625 0.017370794 -0.0024824187
-0.0071490114 0.002316242 -0.10252212 0.066217035 -0.0142223565 -0.023768242 0.00066688017 -0.014641403
-0.015391185 -0.025326384 -0.0068308837 -0.03265043 -0.02562397 0.06020353 -0.007038894 -0.003195867
0.028407171 0.04094672 0.0060798577 -0.01146018 0.007666299 0.020789564 0.008058978 0.0037302843
-0.049522657 -0.021617373 0.009611093 -0.001014553 0.048154566 -0.1105864 0.0027483078 0.021666046
0.044285946 0.092100844 -0.012957963 -0.027465766 -0.043519616 -0.007570158 0.028075915 -0.0056129694
-0.06845816 -0.0028920388 -0.0809444 0.08742688 0.0116563365 0.0063643022 -0.0020167176 -0.028870761
-0.018297939 -0.017927883 -0.07160315 -0.019393006 0.008880374 0.014123226 -0.025035677 -0.0028538816
0.02514311 -0.012247371 0.075116806 0.012198114 -0.0025343038 0.005183297 0.031401478 0.016923359
-0.02004418 0.0023979903 0.035625976 0.08084551 -0.03602424 -0.06692159 -0.066443644 -0.0054077143
0.015077712 -0.019485407 -0.0068031675 -0.00093385193 0.000106068146 0.0040025013 -0.019850088 -0.053961225
-0.0013712915 -0.011558043 -0.0017221333 0.009786559 -0.00077515893 -0.0067666126 0.0048373844 -0.040439922
0.048440684 -0.09065957 0.1405734 0.004942067 0.048745017 -0.071944416 -0.010861977 0.060669735
00000000: 0bee 2bbc 7c06 013c 1fec f0bc ee43 32bd
00000010: 4453 9f3c 99dd b83c 7feb f2bd d006 bc3c
00000020: 3fb1 c13b bc93 bcbc 5768 cebb da7f 21bd
00000030: 074c efbc bc35 afbc 33cd 923d 9492 b5bc
00000040: 3da6 aabd c422 9c3d d858 ccba 2f49 adbd
00000050: fd4a 21bd 2ec1 0b3c 062d b23b ee3d 5dbb
00000060: 8141 3fbd 21f7 30ba ee14 92bd 423f 743d
00000070: 80a0 963b abc9 953d 1b3d 273b 732b 343d
00000080: 4d36 5bbc 0a1d 633d c07c 35bd 8e19 cb3b
00000090: 9b42 2ebb 5a37 74b9 4c03 ccb8 57f6 bb3d
000000a0: 465c 57bd d45a 6b3d 21d1 0cbc dd6f 6b3b
000000b0: 2be3 dcbc 8a01 333a 24ce 8039 1645 503b
000000c0: 3eca 45bc daa1 4e3d c923 9ebd 9baf 1a3d
000000d0: addf b5bc d6fe e5bc e2b8 75ba fa50 9d3a
000000e0: 1f90 8cb9 f20d 3d3d b0b3 48bc 397a 0bbd
000000f0: ae20 e0bc 4793 363d 2c14 933d 7550 933a
00000100: 42ef b33a 4f52 9c37 ba8d d23c a35c dcbc
00000110: 056e 473d 4dc7 bc3d 3e28 813d 9587 d4bc
00000120: 461f cdbc 0006 f33c 5bdc 55bc 3ce1 be3c
00000130: 4b2a 6abb 80a4 80bc c56e 10bd c393 b9bc
00000140: e1e8 ed3c 31cd 873d 0060 8bbc af9c 573d
00000150: 5f5d 48bd 0ee6 b23b 08f3 243d 72ab b53d
00000160: 41b1 9abc 776c debc 3283 343c c55a c3ba
00000170: 5cfc 9c3a ae8c 65bd d3ec ec3b 9f88 9fbd
00000180: affc 13bd 61e8 4ebd a49a bfbc 288c b439
00000190: eb43 b8bb 8933 64ba d0f8 973d 78bd d33c
000001a0: 8391 353c 194c d73d 10be e9bb e2bc 39bd
000001b0: 4257 8b3c 4c40 4c3d 5858 0abd 7d56 80bd
000001c0: 0e0e 32bc ba0d 8a3b cafa a23d 48ae 93bc
000001d0: 6964 5abc 45e9 aa3d b75d ba3a 01c9 e0bd
000001e0: 1fda 6abc 524b 7e3b 2c6e 993d e6c9 f33c
000001f0: 4014 7dbc 6c3b f7bb 5ba3 f8bb 4de2 fcbc
00000200: 915e abbd 5d38 c73d 5abb b23a 3636 46bc
00000210: 537e 043b 5cd3 a53c 1a57 f2bc ed91 15bc
00000220: 3c58 993b 6d99 203d 59e8 09bd 88b5 92bd
00000230: 079b 563d 9f75 45bc 66a1 673c 34ca 05bd
00000240: 17b1 b839 6ab6 a5ba 537a 7a3a 8c0a 663c
00000250: 5dcb c03c 9ad7 ac3d b2be f63b 9ad3 a6bc
00000260: c23d 12bc 454c 42bb 853d e23a 9110 0ebb
00000270: d40e f5bd c825 763d 324d 8e3c 13b0 22bb
00000280: 4142 eabb 18cc 173b 1ef7 d1bd cc9c 873d
00000290: e304 69bc 9eb5 c2bc 92d1 2e3a 7fe2 6fbc
000002a0: 4f2b 7cbc 4779 cfbc 9bd5 dfbb 75bc 05bd
000002b0: 5ce9 d1bc fa97 763d 86a6 e6bb c071 51bb
000002c0: 28b6 e83c bfb7 273d 8b39 c73b 7bc3 3bbc
000002d0: 9435 fb3b e04e aa3c ce09 043c c977 743b
000002e0: 45d8 4abd eb16 b1bc d977 1d3c c0fa 84ba
000002f0: b93d 453d 1f7b e2bd f41c 343b fe7c b13c
00000300: 2e65 353d 5e9f bc3d a34d 54bc e3ff e0bc
00000310: a041 32bd 170f f8bb 76ff e53c 00ed b7bb
00000320: cb33 8cbd 5c88 3dbb 2dc6 a5bd dd0c b33d
00000330: 38fa 3e3c a38b d03b e82a 04bb 6082 ecbc
00000340: 8fe5 95bc 7fdd 92bc aca4 92bd 15de 9ebc
00000350: fd7e 113c 1a65 673c 9f17 cdbc 3008 3bbb
00000360: ecf8 cd3c 32a9 48bc d7d6 993d 99da 473c
00000370: 9016 26bb a6d8 a93b d69e 003d dba2 8a3c
00000380: b133 a4bc 9a27 1d3b 8bec 113d 5592 a53d
00000390: 278e 13bd 300e 89bd 9b13 88bd 3233 b1bb
000003a0: 8208 773c dc9f 9fbc 1bed debb becd 74ba
000003b0: e770 de38 6a27 833b a79c a2bc 7206 5dbd
000003c0: e8bc b3ba f25d 3dbc 34b9 e1ba ce57 203c
000003d0: 0934 4bba 76ba ddbb ec82 9e3b 55a4 25bd
000003e0: bd69 463d baab b9bd 79f2 0f3e 10f1 a13b
000003f0: dba8 473d 9857 93bd 6ff6 31bc d480 783d

bias f4 [64]
-0.18540351 -0.07759852 0.15279791 -0.17471893 0.10319477 -0.20015459 0.14224203 -0.087061815
-0.17779925 -0.070822574 -0.18223254 -0.15257658 0.14173253 0.22929642 -0.26179653 0.20981148
-0.0891233 -0.06323734 -0.106137484 -0.17264321 0.044525117 -0.22307661 -0.010897011 0.17889445
-0.1831646 0.22651583 0.18006517 0.04698822 -0.054923598 0.13156733 0.22311457 -0.042046335
0.06276581 0.17290491 -8.852979e-05 -0.026799079 -0.11880301 0.05027368 0.23549192 -0.20000423
0.1685536 -0.073815346 0.04364552 0.10327354 0.052240804 0.12446514 -0.167764 -0.04683773
-0.15126826 -0.071778044 0.09882488 0.0108188605 0.19238046 0.13400334 0.13405935 0.16699688
0.06986184 0.09272781 -0.13520274 0.20419036 0.05787376 0.067916855 0.12737167 0.04797276
00000000: 6bda 3dbe f9eb 9ebd 0e77 1c3e 85e9 32be
00000010: c857 d33d 53f5 4cbe e5a7 113e 774d b2bd
00000020: 0211 36be 6d0b 91bd 2b9b 3abe 093d 1cbe
00000030: 5522 113e aecc 6a3e 320a 86be d2d8 563e
00000040: 4786 b6bd 9482 81bd 9c5e d9bd 62c9 30be
00000050: f85f 363d 326e 64be 6089 32bc 1b30 373e
00000060: 808f 3bbe c4f3 673e 0163 383e b876 403d
00000070: 91f7 60bd 96b9 063e 2578 643e c738 2cbd
00000080: 5c8b 803d fc0d 313e 12a9 b9b8 be89 dbbc
00000090: fe4e f3bd c6eb 4d3d cb24 713e e9cd 4cbe
000000a0: 5199 2c3e 802c 97bd a5c5 323d 1481 d33d
000000b0: 74fa 553d 94e7 fe3d 53ca 2bbe ebd8 3fbd
000000c0: 11e6 1abe 5e00 93bd b364 ca3d 9741 313c
000000d0: 62ff 443e 2c38 093e db46 093e 3b01 2b3e
000000e0: b913 8f3d 14e8 bd3d 9672 0abe 4717 513e
000000f0: 090d 6d3d fe17 8b3d b86d 023e 167f 443d

weight f4 [64]
1.0191004 0.9519865 1.0254109 1.0335819 0.9012223 1.0537776 1.0468524 0.92960536
0.99277747 1.0620487 0.9033457 0.98920083 1.021175 1.012825 1.0070723 0.9996904
0.93961924 1.0118929 0.9874584 1.0202549 0.9384229 0.94326067 0.97699714 0.9466448
0.9392108 1.0476885 1.015472 1.0302337 1.0144968 0.95505786 0.9880224 0.97031915
1.0016624 1.0624496 0.9728689 0.9609474 0.9536164 0.950475 1.032279 1.0131292
1.0978364 0.9776161 0.9469583 0.9699681 1.016115 0.95506346 0.99624914 1.0488303
0.9982609 1.0291245 0.93111295 0.935206 0.93450344 0.96693593 0.99822015 0.9590956
0.99483377 0.95915544 1.0008961 1.0420176 1.0150164 1.0309341 1.0135345 1.0191735
00000000: e271 823f 63b5 733f aa40 833f 694c 843f
00000010: 81b6 663f 2fe2 863f 42ff 853f 9efa 6d3f
00000020: aa26 7e3f 36f1 873f aa41 673f 443c 7d3f
00000030: ddb5 823f 40a4 813f bfe7 803f b6eb 7f3f
00000040: e38a 703f b585 813f 13ca 7c3f b697 823f
00000050: 7c3c 703f 8879 713f 7c1c 7a3f 5057 723f
00000060: 1e70 703f a81a 863f fdfa 813f b3de 833f
00000070: 08db 813f ac7e 743f 09ef 7c3f d666 783f
00000080: 7936 803f 59fe 873f f00d 793f a600 763f
00000090: 3420 743f 5452 733f b821 843f 38ae 813f
000000a0: e785 8c3f 0c45 7a3f dc6b 723f d44f 783f
000000b0: 0e10 823f 0a7f 743f 2f0a 7f3f 1240 863f
000000c0: 078e 7f3f 5aba 833f 6b5d 6e3f a969 6f3f
000000d0: 9e3b 6f3f 1d89 773f 5b8b 7f3f 4a87 753f
000000e0: 6dad 7e3f 368b 753f 5d1d 803f d560 853f
000000f0: 0fec 813f a6f5 833f 80bb 813f 4774 823f

bias f4 [64]
-0.55567396 -0.020037819 -0.010034163 -0.030407423 0.0013548236 -0.057727177 0.00074132025 0.0042054798
-0.030173218 -0.044219557 -0.0026024557 -0.0067982166 -0.0041443305 -0.095007196 0.004997992 -0.0072268783
-0.0052474956 2.6212747e-05 -0.02021632 -0.010161732 -0.47330812 -0.03925261 0.0015519727 -0.0014038171
-0.0074003856 8.636321e-05 -0.006077731 -0.055358555 0.00065821153 -0.009030897 0.0040607373 0.008224996
-0.00621007 -0.012909027 -0.12444615 0.0019393808 -0.0016391852 -0.1897761 0.000106933345 0.005511166
-0.5196776 0.10003982 -0.21438514 -0.0018317366 0.004514589 -0.0063920845 -0.0116508715 -0.0014980511
0.02812468 -0.011464051 -0.0069045653 0.0008548136 -0.05712219 -0.005843987 -0.006438135 -0.042558566
-0.27764428 0.003560948 -0.5390042 -0.37839094 -0.07381386 -0.015164764 -0.0013823262 -0.07278444
00000000: a640 0ebf 5a26 a4bc 5466 24bc fd18 f9bc
00000010: 5694 b13a 5573 6cbd 2955 423a 1fce 893b
00000020: d32d f7bc 911f 35bd f68d 2abb 93c3 debb
00000030: 2acd 87bb 2293 c2bd 32c6 a33b 73cf ecbb
00000040: 2ff3 abbb 72e3 db37 b29c a5bc 657d 26bc
00000050: 7155 f2be 58c7 20bd 906b cb3a 4900 b8ba
00000060: ef7e f2bb e51d b538 b427 c7bb a7bf 62bd
00000070: d48b 2c3a 54f6 13bc ef0f 853b 22c2 063c
00000080: d87d cbbb 6280 53bc a0dd febd d232 fe3a
00000090: eed9 d6ba aa54 42be 6741 e038 0397 b43b
000000a0: 9709 05bf ade1 cc3d c787 5bbe e216 f0ba
000000b0: 1eef 933b b174 d1bb 4ce3 3ebc 415a c4ba
000000c0: bb65 e63c b7d3 3bbc b13f e2bb 9215 603a
000000d0: f5f8 69bd eb7e bfbb fef6 d2bb e451 2ebd
000000e0: 6427 8ebe cb5e 693b 2efc 09bf 75bc c1be
000000f0: b92b 97bd a175 78bc 2c2f b5ba 0210 95bd

running_mean f4 [64]
-0.18490535 -0.074107125 0.15194623 -0.17406838 0.10459499 -0.19699332 0.14257495 -0.08711025
-0.17902742 -0.06921667 -0.18276054 -0.15359665 0.14013904 0.23069628 -0.2623422 0.20875873
-0.08915513 -0.06217819 -0.10605519 -0.17325716 0.043313567 -0.22267626 -0.012718159 0.17929967
-0.18384162 0.22484557 0.18082075 0.04560576 -0.055111457 0.13160282 0.22504145 -0.04084722
0.062988445 0.17228638 -0.0023984697 -0.027527925 -0.11692403 0.05071211 0.23571377 -0.19985984
0.16841152 -0.07422033 0.04279194 0.10300626 0.05299305 0.123834684 -0.1691693 -0.046258755
-0.15299761 -0.073209584 0.09889506 0.011032559 0.193646 0.13406722 0.13271889 0.1658054
0.07080493 0.093880154 -0.1334886 0.20490822 0.060298376 0.06813203 0.12965912 0.047958653
00000000: d457 3dbe 7ac5 97bd cb97 1b3e fb3e 32be
00000010: e635 d63d 9eb8 49be 2bff 113e dc66 b2bd
00000020: f752 37be 78c1 8dbd 9425 3bbe 7148 1dbe
00000030: 9c80 0f3e a53b 6c3e b851 86be d9c4 553e
00000040: f796 b6bd 8fae 7ebd 7733 d9bd 536a 31be
00000050: 9169 313d 3f05 64be d35f 50bc 559a 373e
00000060: fa40 3cbe eb3d 663e 1329 393e 1bcd 3a3d
00000070: 8dbc 61bd e4c2 063e 4471 663e 6a4f 27bd
00000080: 1600 813d d76b 303e a52f 1dbb 3e82 e1bc
00000090: de75 efbd 80b7 4f3d f35e 713e 0fa8 4cbe
000000a0: 1274 2c3e d400 98bd 9a46 2f3d f2f4 d23d
000000b0: 3e0f 593d 0a9d fd3d b83a 2dbe d279 3dbd
000000c0: 68ab 1cbe e8ee 95bd 7e89 ca3d e8c1 343c
000000d0: 234b 463e eb48 093e 76e7 073e e4c8 293e
000000e0: 2d02 913d 3d44 c03d 3cb1 08be 76d3 513e
000000f0: 6efb 763d ce88 8b3d 5cc5 043e 4b70 443d

running_var f4 [64]
0.028331988 0.021459216 0.018775342 0.018842181 0.017277487 0.022600148 0.027978173 0.020852977
0.018364143 0.017745191 0.020904126 0.019787243 0.018731574 0.023936272 0.018496273 0.02126752
0.024920303 0.021047479 0.025467537 0.021468757 0.025381243 0.021555703 0.021371543 0.01863741
0.023096386 0.021217044 0.016255014 0.023075748 0.016894849 0.020240014 0.02275077 0.02288065
0.030782612 0.026067482 0.020352816 0.025253797 0.024118848 0.026733141 0.020019399 0.021720763
0.020608796 0.020602653 0.01626584 0.01905106 0.024330663 0.024355182 0.016351456 0.02140874
0.024241084 0.027097115 0.016873507 0.014418715 0.017155042 0.018938448 0.022521345 0.017350854
0.027541116 0.020233134 0.02757989 0.021893973 0.019871892 0.01605559 0.018041741 0.028764307
00000000: 7c18 e83c 3dcb af3c bfce 993c eb5a 9a3c
00000010: 8489 8d3c f223 b93c 7b32 e53c ddd3 aa3c
00000020: 6670 963c 5d5e 913c 213f ab3c db18 a23c
00000030: f572 993c 0016 c43c 7f85 973c 3939 ae3c
00000040: aa25 cc3c c36b ac3c 4ca1 d03c 3fdf af3c
00000050: 53ec cf3c 9695 b03c 6013 af3c 7bad 983c
00000060: a234 bd3c 5ecf ad3c 3c29 853c 5a09 bd3c
00000070: 1167 8a3c 63ce a53c d35f ba3c 3370 bb3c
00000080: d12b fc3c 798b d53c f3ba a63c 0de1 ce3c
00000090: e494 c53c 76ff da3c b9ff a33c beef b13c
000000a0: c7d3 a83c e5c6 a83c f03f 853c f810 9c3c
000000b0: 1951 c73c 8584 c73c 7df3 853c 6261 af3c
000000c0: 3d95 c63c c5fa dd3c 4f3a 8a3c 793c 6c3c
000000d0: bb88 8c3c ce24 9b3c af7e b83c 6123 8e3c
000000e0: e89d e13c f5bf a53c 39ef e13c fd5a b33c
000000f0: 61ca a23c 0387 833c 46cc 933c 20a3 eb3c

weight f4 [64, 64, 3, 3]
0.008017395 -0.045531694 0.052049935 -0.092750825 0.0013993689 0.043130875 -0.12295012 -0.036438227
0.01650558 -0.035369515 -0.009783652 -0.0064155925 -0.04435144 0.050210737 0.05220257 -0.0024259295
0.0018382963 0.014459818 0.06859087 -0.04085176 0.0033113463 -0.021309242 0.013898621 -0.01681971
0.05122617 0.01312946 -0.043172777 -0.067678265 -0.030647026 -0.016319567 0.00210727 -0.013417851
-0.045783013 0.011414419 -0.01483211 0.0108261 0.022822104 -0.07591258 -0.055656888 -0.038884073
-0.03775565 0.009070974 -0.005080875 0.002704949 0.013431277 -0.07605067 -0.040096544 -0.023514733
-0.011311207 -0.011813002 -0.05370686 -0.021133646 0.033264805 -0.01714048 -0.072863445 0.012940039
0.053933796 -0.005369839 -0.060637314 0.046576504 -0.0012025217 -0.0064979508 0.0010398042 -0.03470086
-0.016469175 0.013116848 -0.033393577 -0.022303041 -0.020797433 0.059918273 -0.013452262 0.019332655
0.016487388 0.03704714 0.020573536 -0.047166735 -0.030969825 -8.362647e-05 -0.031451296 -0.024057213
-0.042423017 0.08757745 0.006590795 -0.047834784 -0.0023182863 0.03058194 -0.0069999737 -0.05149108
0.013690647 0.015408288 -0.03979979 0.10158588 -0.00094182737 0.003581395 -0.029621616 0.007269163
-0.0014518074 0.0011341963 -0.021144917 -0.0153898075 -0.036884293 -0.0010901417 0.011820961 -0.025531152
-0.0441641 0.015145164 0.009701449 -0.012374359 -0.0033337828 -0.024293348 -0.048761163 -0.027532836
0.017094273 -0.0052267173 0.02048104 -0.048660267 0.00726819 0.03317073 -0.0167156 -0.033968367
0.018585576 -0.030823905 0.002978759 0.08227536 -0.053979304 0.016777191 0.10141756 -0.010111409
-0.054086156 0.029932257 0.0134988995 0.014710197 0.05005514 0.01261865 0.032489263 -0.05894295
-0.030482478 0.02543171 5.604879e-05 -0.0043457625 0.073911704 0.0053251316 0.0152111575 0.03826079
0.029547693 -0.029462935 0.00772381 0.025947938 0.034932945 -0.013163842 0.06480794 0.008915359
0.0019026096 0.050860316 -0.01790952 -0.005436836 0.0015203616 0.009514127 -0.027862063 -0.010543402
-0.041548777 -0.0077826967 -0.014852639 -0.04736882 0.017137198 0.015837409 -0.064977735 0.020779463
0.006896931 -0.0011279162 0.02333077 -0.049774423 -0.08061075 -0.031642906 0.009719343 -0.057784405
-0.021485645 -0.062124934 -0.08363237 -0.01177022 0.07994812 0.0061413595 0.004726152 0.01309656
0.021191083 0.019899625 -0.06758912 0.033649117 -0.027932612 0.013988426 -0.053437125 0.05762348
-0.010318511 -0.0153711075 -0.0046470007 -0.027042894 0.0153129 0.021213474 -0.07948963 -0.01537659
-0.05725799 -0.042406153 -0.026494032 -0.008211947 -0.074725546 -0.024378948 -0.031935755 -0.045223948
-0.0031658357 0.0086204335 -0.0030027744 -0.0712583 0.019064076 0.02883997 -0.049923386 0.038244866
0.017512484 0.090354376 -0.04395101 -0.0012987816 -0.019463183 0.022668436 0.009973498 0.013230775
0.023026044 0.007159537 0.018030101 0.08432296 0.030997382 0.003208999 0.05488647 0.023194307
0.03497919 0.02270951 0.05217926 -0.031664554 0.11561114 0.06782696 0.030835155 0.040562212
0.072885126 0.019254258 -0.006903146 -0.024469148 -0.078153335 -0.03871584 -0.025590232 0.0014868751
-0.06704035 0.03455252 0.0605928 0.016058415 -0.09267056 -0.04376984 0.10592151 -0.05171399
00000000: 645b 033c 717f 3abd 5032 553d 25f4 bdbd
00000010: 076b b73a 00aa 303d 46cd fbbd 4040 15bd
00000020: b636 873c a0df 10bd 9c4b 20bc e439 d2bb
00000030: dba9 35bd c6a9 4d3d 5dd2 553d 58fc 1ebb
00000040: fdf2 f03a dfe8 6c3c 5f79 8c3d 2d54 27bd
00000050: 2c03 593b b890 aebc 0bb7 633c 7dc9 89bc
00000060: 88d2 513d f21c 573c f0d5 30bd e79a 8abd
00000070: 790f fbbc 9db0 85bc 201a 0a3b 8cd6 5bbc
00000080: f886 3bbd 8b03 3b3c 6102 73bc f45f 313c
00000090: 6cf5 ba3c 0e78 9bbd 7af8 63bd e844 1fbd
000000a0: aba5 1abd 6c9e 143c 787d a6bb 8345 313b
000000b0: dc0e 5c3c 74c0 9bbd 463c 24bd f8a1 c0bc
000000c0: a452 39bc 528b 41bc b9fb 5bbd 7820 adbc
000000d0: ad40 083d 316a 8cbc 6e39 95bd 7502 543c
000000e0: afe9 5c3d 79f5 afbb d55e 78bd 01c7 3e3d
000000f0: ef9d 9dba c3ec d4bb 0a4a 883a 7d22 0ebd
00000100: 5dea 86bc 0ce8 563c b4c7 08bd deb4 b6bc
00000110: 615f aabc dd6c 753d e066 5cbc 845f 9e3c
00000120: 8f10 873c bebe 173d d589 a83c e831 41bd
00000130: 6eb4 fdbc 9f60 afb8 13d3 00bd a213 c5bc
00000140: c2c3 2dbd ce5b b33d 98f7 d73b 68ee 43bd
00000150: 64ee 17bb fa86 fa3c 0960 e5bb 50e8 52bd
00000160: bc4e 603c 0b73 7c3c 1b05 23bd 420c d03d
00000170: f7e4 76ba d6b5 6a3b 08a9 f2bc 2932 ee3b
00000180: 934a beba 50a9 943a 1b38 adbc 8825 7cbc
00000190: fc13 17bd 16e3 8eba b4ac 413c b526 d1bc
000001a0: 6ae5 34bd 6c23 783c d4f2 1e3c d3bd 4abc
000001b0: 987b 5abb d802 c7bc c9b9 47bd 8b8c e1bc
000001c0: 4a09 8c3c e244 abbb dbc7 a73c fd4f 47bd
000001d0: ff29 ee3b 08de 073d 27ef 88bc 6a22 0bbd
000001e0: c740 983c 6a82 fcbc 4837 433b fc7f a83d
000001f0: 6719 5dbd 5270 893c 02b4 cf3d 53aa 25bc
00000200: 7289 5dbd 7e34 f53c 7d2a 5d3c 0a03 713c
00000210: 9e06 4d3d 74be 4e3c 7613 053d 2a6e 71bd
00000220: 64b6 f9bc 2956 d03c ee15 6b38 e666 8ebb
00000230: 055f 973d 717e ae3b 3838 793c 59b7 1c3d
00000240: 010e f23c 415c f1bc 0418 fd3b c590 d43c
00000250: d915 0f3d 28ad 57bc 06ba 843d ba11 123c
00000260: fc60 f93a e852 503d fcb6 92bc 7c27 b2bb
00000270: df46 c73a 24e1 1b3c fb3e e4bc 3cbe 2cbc
00000280: 0d2f 2abd fe05 ffbb 7c58 73bc cf05 42bd
00000290: 4f63 8c3c 74bd 813c 0c13 85bd b139 aa3c
000002a0: a7ff e13b 96d6 93ba 2c20 bf3c 44e0 4bbd
000002b0: 4017 a5bd fe9b 01bd e13d 1f3c 57af 6cbd
000002c0: aa02 b0bc b776 7ebd 7347 abbd e1d7 40bc
000002d0: d7bb a33d 753d c93b d6dd 9a3b f492 563c
000002e0: ec98 ad3c 8a04 a33c 2a6c 8abd a8d3 093d
000002f0: efd2 e4bc b62f 653c e3e0 5abd 9906 6c3d
00000300: f90e 29bc 19d7 7bbc de45 98bb 0f89 ddbc
00000310: f5e2 7a3c e1c7 ad3c 76cb a2bd 18ee 7bbc
00000320: 5b87 6abd 13b2 2dbd 030a d9bc 678b 06bc
00000330: b509 99bd 5cb6 c7bc 11cf 02bd bf3c 39bd
00000340: e979 4fbb b83c 0d3c 32ca 44bb dfef 91bd
00000350: 442c 9c3c cd41 ec3c 777c 4cbd a6a6 1c3d
00000360: 5776 8f3c b70b b93d f905 34bd e13b aaba
00000370: 4171 9fbc 28b3 b93c e267 233c e4c5 583c
00000380: 1da1 bc3c 8d9a ea3b ddb3 933c 84b1 ac3d
00000390: 39ee fd3c 124e 523b a3d0 603d fd01 be3c
000003a0: 5746 0f3d 4b09 ba3c ebb9 553d b1b2 01bd
000003b0: 89c5 ec3d dce8 8a3d 029a fc3c 9024 263d
000003c0: cc44 953d 1bbb 9d3c c933 e2bb 8673 c8bc
000003d0: db0e a0bd 8094 1ebd 9ba2 d1bc 40e3 c23a
000003e0: 734c 89bd f186 0d3d 2830 783d f08c 833c
000003f0: 10ca bdbd 0148 33bd 60ed d83d 0cd2 53bd

bias f4 [64]
0.06448573 -0.13171479 0.01694075 0.016708264 0.011191872 0.021234626 -0.2255301 -0.17533106
0.105674885 0.0031075147 0.0818017 0.04804246 -0.04877426 -0.019927163 0.019296601 -0.033066165
-0.034901526 0.0053215735 0.0049782232 0.046014793 0.08197454 0.017039206 0.082777284 -0.1048035
-0.017212939 0.012268569 -0.009730347 -0.012789672 -0.008444823 0.028119428 -0.007375828 0.041455664
0.023091717 -0.11364191 -0.013972007 -0.03914713 -0.01282851 -0.12076696 0.051854085 -0.07479101
-0.10634851 -0.032073934 0.00196771 -0.12749906 0.021023085 -0.05965835 0.026745666 0.070540346
-0.23143245 0.060348958 0.06592311 0.0999297 0.10258922 0.055606205 -0.14241487 -0.20702305
0.0233918 0.008342963 -0.10568883 0.08052721 0.038675398 0.052546527 -0.19295458 -0.02313307
00000000: 1811 843d 3ee0 06be 54c7 8a3c c5df 883c
00000010: 1d5e 373c 3df4 ad3c 5df1 66be fc89 33be
00000020: 136c d83d 72a7 4b3b a687 a73d 2cc8 443d
00000030: 85c7 47bd 4a3e a3bc e813 9e3c 6370 07bd
00000040: e7f4 0ebd 9860 ae3b 5d20 a33b 027a 3c3d
00000050: 45e2 a73d ce95 8b3c 2387 a93d 38a3 d6bd
00000060: 2602 8dbc 1c02 493c 096c 1fbc c68b 51bc
00000070: 285c 0abc b75a e63c eeb0 f1bb 6acd 293d
00000080: d72a bd3c 17bd e8bd d8ea 64bc be58 20bd
00000090: ac2e 52bc ab54 f7bd f364 543d 072c 99bd
000000a0: 3fcd d9bd f55f 03bd b2f4 003b 1d8f 02be
000000b0: 9b38 ac3c 505c 74bd ba19 db3c 7577 903d
000000c0: a1fc 6cbe 7830 773d b202 873d f1a7 cc3d
000000d0: 4c1a d23d 55c3 633d 34d5 11be dafd 53be
000000e0: 29a0 bf3c ecb0 083c 6373 d8bd 73eb a43d
000000f0: 186a 1e3d 073b 573d e395 45be 9081 bdbc

weight f4 [64]
1.2288649 1.1655499 1.069689 1.1167558 1.1705772 1.0670433 1.4804952 1.2734362
1.0650328 1.0686758 1.2370503 1.040187 1.1991487 1.0666957 1.0886525 1.1240013
1.1557165 1.0586859 1.180583 1.057762 1.0612885 1.0887549 1.1048901 1.1580067
1.1105744 1.131323 1.1869756 1.0477093 1.1303709 1.1018572 1.1008229 1.0522873
1.0894756 1.3051358 1.1220328 1.1691039 1.1615697 1.2744012 1.032156 1.1228305
1.1961625 1.0471233 1.0370107 1.1497251 1.0357201 1.1209592 1.0791693 1.196023
1.3509998 1.1180202 1.122725 1.1087397 1.0342349 1.1132257 1.2757618 1.3771504
1.192419 1.0710152 1.1291745 1.1040878 1.0704129 1.1232187 1.3303308 1.1436442
00000000: 724b 9d3f bd30 953f 92eb 883f dbf1 8e3f
00000010: 79d5 953f e094 883f de80 bd3f f5ff a23f
00000020: ff52 883f 5eca 883f aa57 9e3f d924 853f
00000030: b47d 993f 7c89 883f f758 8b3f 46df 8f3f
00000040: 85ee 933f 0583 873f 581d 973f bf64 873f
00000050: 4dd8 873f 525c 8b3f 0a6d 8d3f 9039 943f
00000060: 4d27 8e3f 31cf 903f d1ee 973f 571b 863f
00000070: feaf 903f a809 8d3f c4e7 8c3f 5ab1 863f
00000080: f073 8b3f b10e a73f c59e 8f3f 32a5 953f
00000090: 51ae 943f 941f a33f b01d 843f e9b8 8f3f
000000a0: da1b 993f 2308 863f c4bc 843f 312a 933f
000000b0: 7a92 843f 977b 8f3f 3822 8a3f 4817 993f
000000c0: 90ed ac3f 491b 8f3f 74b5 8f3f 2feb 8d3f
000000d0: cf61 843f 2e7e 8e3f 2a4c a33f 7746 b03f
000000e0: 30a1 983f 0717 893f ca88 903f c052 8d3f
000000f0: 4a03 893f a1c5 8f3f 4848 aa3f ef62 923f

bias f4 [64]
-0.13564478 -0.18315676 0.0793088 -0.04582333 -0.17541029 0.061362825 -0.59017193 -0.34107065
0.047003023 0.073445566 -0.20873745 0.05813515 0.03567362 0.05222495 0.06258097 -0.21794428
0.10293085 0.06651913 -0.15867178 0.05520798 0.08471132 0.0705269 0.12689474 -0.108960815
0.050934035 0.04175662 0.1557068 0.028820358 0.06883518 -0.08470104 0.08046286 0.0812864
0.091148846 -0.3109379 0.09122385 -0.17264444 -0.18030438 -0.31882757 0.03969005 -0.0048830565
-0.16953343 -0.104727566 -0.109455846 -0.1568284 0.04834039 0.12660727 0.05633026 -0.14774384
-0.42837593 -0.14678076 0.14422207 0.12620918 0.057873033 0.09361075 -0.25389293 -0.35034552
-0.0809494 0.042805374 0.09578504 -0.047737658 0.05988406 0.115349546 -0.5922508 0.11537597
00000000: 77e6 0abe 728d 3bbe a76c a23d 3eb1 3bbd
00000010: c19e 33be 9657 7b3d 8215 17bf d0a0 aebe
00000020: 3e86 403d a16a 963d 45bf 55be 1f1f 6e3d
00000030: 801e 123d d4e9 553d 742a 803d c92c 5fbe
00000040: 69cd d23d 2e3b 883d db7a 22be c321 623d
00000050: 217d ad3d 6870 903d b2f0 013e d926 dfbd
00000060: 35a0 503d fd08 2b3d 9a71 1f3e ac18 ec3c
00000070: 75f9 8c3d bd77 adbd b6c9 a43d 7c79 a63d
00000080: 3fac ba3d 4133 9fbe 92d3 ba3d b4c9 30be
00000090: b6a1 38be 5e3d a3be 0992 223d 0c02 a0bb
000000a0: 2c9a 2dbe 687b d6bd 632a e0bd a097 20be
000000b0: 9300 463d 56a5 013e 8fba 663d 294a 17be
000000c0: 1754 dbbe b24d 16be f3ae 133e fb3c 013e
000000d0: 460c 6d3d feb6 bf3d 41fe 81be 7d60 b3be
000000e0: cdc8 a5bd b054 2f3d f22a c43d 9088 43bd
000000f0: fd48 753d 623c ec3d c09d 17bf 3d4a ec3d

running_mean f4 [64]
-0.5488525 -1.5512869 -0.23091297 -1.513248 0.20333989 -0.36855304 -2.1747777 -2.1693563
0.1297974 -0.50390667 0.84548175 -0.37681764 -1.0912312 -1.0494393 0.4012709 0.46027458
-1.017557 -0.28644693 0.013038986 -0.61524856 -0.46192953 -0.6334434 0.13433835 -1.9941
-1.8118508 -0.7520306 -0.49370432 -0.7637202 -0.3452454 -0.7010491 -0.587108 -0.53995955
-0.42654437 -2.5732477 -1.276091 -0.8631287 -0.044831023 -1.9334042 -0.462519 -1.967488
-1.9165337 1.20695 0.0028830944 -1.8128446 -0.14009115 -0.85423565 -0.9909048 0.18350102
-2.0611408 1.2451909 -0.5572671 -0.09332985 -0.6049977 -0.075887226 -1.6637664 -1.6167742
0.50999796 -0.33596715 -1.4222878 0.03621613 -0.22962213 -0.31656262 -1.8337187 -1.2434671
00000000: 9981 0cbf 9290 c6bf 7374 6cbe 1cb2 c1bf
00000010: 5538 503e fcb2 bcbe 8f2f 0bc0 bcd6 0ac0
00000020: 9ce9 043e 0700 01bf 7e71 583f 3eee c0be
00000030: 77ad 8bbf 0754 86bf 6173 cd3e 1ca9 eb3e
00000040: 4f3f 82bf 2ca9 92be 79a1 553c ee80 1dbf
00000050: 0782 ecbe 5929 22bf fe8f 093e ab3e ffbf
00000060: baea e7bf 1485 40bf d0c6 fcbe 2b83 43bf
00000070: 01c4 b0be f477 33bf b64c 16bf ca3a 0abf
00000080: 0664 dabe 17b0 24c0 f356 a3bf 01f6 5cbf
00000090: bca0 37bd ca79 f7bf 4acf ecbe a6d6 fbbf
000000a0: fa50 f5bf 567d 9a3f 4cf2 3c3b 4b0b e8bf
000000b0: 0e74 0fbe 30af 5abf f0ab 7dbf b1e7 3b3e
000000c0: bbe9 03c0 6a62 9f3f 0fa9 0ebf b823 bfbd
000000d0: 21e1 1abf c36a 9bbd 4cf6 d4bf 75f2 cebf
000000e0: 3a8f 023f e303 acbe 870d b6bf 5d57 143d
000000f0: 1022 6bbe 7f14 a2be 4bb7 eabf ee29 9fbf

running_var f4 [64]
0.80175817 0.874037 1.0549977 0.7406495 0.80336183 1.0334718 0.67255807 0.8479715
0.84731215 1.2082517 1.0002775 1.0966403 1.1601918 1.6157652 1.1530826 0.76245236
1.4307748 1.1402923 0.7476448 0.988183 0.87081844 0.9628334 1.484814 1.0517689
1.41848 0.97195876 1.5785717 1.7587216 1.1186948 0.5258073 1.2154722 1.1647229
1.5895169 1.1230832 1.4151427 0.4406377 0.6250455 1.0010116 1.2099705 1.2822348
0.8960618 0.76950186 0.75700337 0.97381324 1.1443518 1.3180285 1.1373078 0.71818817
0.6605244 1.0855069 1.7027528 1.4216276 0.9549152 1.5257151 0.62310404 0.7191113
0.895857 1.1581849 1.0126903 0.9115934 0.9931419 1.2984817 0.48051432 1.388512
00000000: 0640 4d3f e4c0 5f3f 2a0a 873f 359b 3d3f
00000010: 1fa9 4d3f ce48 843f c42c 2c3f a914 593f
00000020: 73e9 583f fea7 9a3f 1809 803f b65e 8c3f
00000030: 2a81 943f 65d1 ce3f 3698 933f 1430 433f
00000040: a123 b73f 19f5 913f a665 3f3f 90f9 7c3f
00000050: f5ed 5e3f 407c 763f 630e be3f 5da0 863f
00000060: c190 b53f 4ad2 783f a30e ca3f ca1d e13f
00000070: 6431 8f3f 4f9b 063f 9894 9b3f a415 953f
00000080: 4a75 cb3f 31c1 8f3f 6523 b53f 449b e13e
00000090: fb02 203f 2621 803f 50e0 9a3f 4520 a43f
000000a0: 4e64 653f 13fe 443f f9ca 413f d34b 793f
000000b0: 1f7a 923f 28b5 a83f 4d93 913f 2edb 373f
000000c0: 2118 293f e4f1 8a3f cef3 d93f e5f7 b53f
000000d0: 5375 743f a24a c33f bf83 1f3f ae17 383f
000000e0: e256 653f 673f 943f d69f 813f 2f5e 693f
000000f0: 8c3e 7e3f a634 a63f f905 f63e c3ba b13f

weight f4 [2, 64, 3, 3]
0.020014368 0.019587556 -0.10399322 -0.0070522353 0.027071303 -0.03113715 0.077794425 0.046028975
-0.032778874 -0.06467749 -0.016215447 0.039842032 -0.023020912 -0.05068385 -0.013082292 -0.09905262
-0.07909313 -0.10569116 0.06673391 0.023335591 0.0179525 0.030626705 0.04319319 0.017027674
0.03921348 0.017880455 0.024303418 -0.005845909 0.045556907 -0.027951531 0.032763805 -0.0017393082
-0.062312555 0.07640127 0.051448364 -0.0040411884 -0.094954185 0.011770135 0.035180703 -0.0080427695
0.020289818 0.029409857 -0.017627291 0.028394595 0.06967128 0.043276146 0.056631066 0.0034687624
0.021251807 0.022865662 0.013244328 0.059076626 0.00341214 0.027924381 -0.036391653 -0.07909387
0.01055936 0.012416563 -0.067350306 0.049380556 -0.16459861 -0.15427518 -0.14814974 -0.020271074
-0.002273739 0.035492998 0.007840648 0.0034345402 0.051033817 -0.09625526 -0.090459004 -0.0498762
0.043799862 0.0505072 0.066409096 0.010078641 0.043034405 0.04140565 0.060518734 0.0555263
0.021947281 -0.017591372 0.035030507 -0.024899505 0.021531174 0.043805175 -0.008037613 0.043898165
0.053916615 -0.0044471635 -0.0134403715 0.029512817 -0.015433282 -0.049326587 0.023020994 -0.026560532
-0.09803473 0.014569369 0.02060143 0.0321062 0.056226052 0.05489148 0.05128062 0.009337622
0.007812645 0.06409659 0.07257705 0.013283942 0.022005811 -0.04850124 0.04272905 0.013628885
-0.087193005 0.039657943 0.024055578 -0.057969023 0.015581678 0.06200578 -0.015047729 0.024051549
-0.007821922 0.018425783 0.004784826 -0.0031810603 4.739893e-05 0.045979686 0.03187687 0.010704894
0.0396388 0.016618975 0.0037493682 0.058937076 0.025829043 -0.035651386 -0.02214085 -0.0013932567
-0.12030692 0.016182413 0.014055685 -0.0041772337 0.018919634 0.010464672 -0.059130456 0.041068748
0.07259554 0.045978643 0.07113989 0.019268258 0.034070976 0.039520673 0.060637154 0.006806616
0.052957185 0.029956989 -0.0011512318 0.045795873 0.022450218 0.054720048 0.005693112 0.00719784
0.03711364 0.02459268 0.039255634 0.045064084 -0.11518041 0.0524643 0.011538227 -0.038096886
0.030604344 0.05525748 -0.040953718 0.043381397 0.04931867 0.07109661 0.029505452 0.015785987
0.026734876 0.027323605 0.06686694 0.0074128015 0.045700233 0.024144562 0.0421451 0.008144731
0.014300443 0.06197296 0.027482 0.009710033 0.01358119 0.0026599278 0.011661941 0.026680397
0.016420413 0.018942708 0.03754319 0.013139495 0.033094067 0.06292093 0.008407264 0.058648296
0.021982908 0.017265579 0.054470938 0.03132855 0.05015796 0.014123735 0.039437152 -0.019219263
0.012667017 -0.028853191 0.033145193 0.05810509 0.023186143 0.022293886 -0.06863024 -0.059847586
0.045175828 0.001655169 -0.020793574 0.017956115 -0.01606501 -0.046487827 0.063043214 -0.006214769
0.03045619 -0.004703717 -0.054429118 0.03515868 0.044117797 -0.012656329 0.03289393 0.026685158
-0.014419594 0.019048944 0.013209031 0.0783625 -0.008798595 0.05245466 0.019018099 0.008151126
0.022594294 0.048754863 0.030828407 0.018918281 0.006480574 0.032594256 -0.02742036 0.02424228
0.016729282 -0.02165578 -0.0012469087 0.00025742306 0.011709538 0.06009051 0.020093244 -0.021134067
00000000: 2cf5 a33c 1576 a03c 66fa d4bd 7016 e7bb
00000010: a3c4 dd3c 5613 ffbc af52 9f3d e188 3c3d
00000020: 2443 06bd a275 84bd 42d6 84bc 6631 233d
00000030: 5a96 bcbc de99 4fbd 1c57 56bc 1adc cabd
00000040: 94fb a1bd 9b74 d8bd caab 883d 482a bf3c
00000050: 1f11 933c dbe4 fa3c 58eb 303d 9f7d 8b3c
00000060: 509e 203d 087a 923c f617 c73c 0a8f bfbb
00000070: e199 3a3d 9cfa e4bc 5733 063d 80f9 e3ba
00000080: 733b 7fbd 4578 9c3d 85bb 523d f26b 84bb
00000090: 5777 c2bd 86d7 403c a419 103d d2c5 03bc
000000a0: d536 a63c f1ec f03c 1c67 90bc c89b e83c
000000b0: d1af 8e3d 5442 313d faf5 673d 2d54 633b
000000c0: 4518 ae3c c550 bb3c bdfe 583c 55fa 713d
000000d0: 369e 5f3b acc1 e43c 6a0f 15bd f8fb a1bd
000000e0: 2a01 2d3c d76e 4b3c f5ee 89bd 4443 4a3d
000000f0: 8a8c 28be 50fa 1dbe 91b4 17be 860f a6bc
00000100: 0303 15bb 1b61 113d 1076 003c 0616 613b
00000110: d608 513d 7a21 c5bd 9242 b9bd fc4a 4cbd
00000120: 7c67 333d a3e0 4e3d 7e01 883d e220 253c
00000130: d844 303d f998 293d 7ee2 773d 8c6f 633d
00000140: c9ca b33c c81b 90bc 267c 0f3d 0cfa cbbc
00000150: 2562 b03c 0e6d 333d 31b0 03bc 90ce 333d
00000160: abd7 5c3d 83b9 91bb 0135 5cbc ddc4 f13c
00000170: e0db 7cbc ad0a 4abd 8696 bc3c 7995 d9bc
00000180: 6fc6 c8bd 5db4 6e3c 55c4 a83c ca81 033d
00000190: 4a4d 663d e3d5 603d a10b 523d d3fc 183c
000001a0: 9c00 003c 1345 833d 47a3 943d e4a4 593c
000001b0: 8845 b43c 3ca9 46bd a804 2f3d b04b 5f3c
000001c0: 3f92 b2bd 5e70 223d 3410 c53c ed70 6dbd
000001d0: 4b4a 7f3c c6f9 7d3d c08a 76bc c107 c53c
000001e0: 8527 00bc abf1 963c 08ca 9c3b 5679 50bb
000001f0: 37ce 4638 3255 3c3d 5291 023d 9463 2f3c
00000200: 4b5c 223d 8424 883c f6b7 753b 0168 713d
00000210: 6e97 d33c 3007 12bd ba60 b5bc f09d b6ba
00000220: 7963 f6bd fb90 843c d149 663c 2de1 88bb
00000230: 59fd 9a3c 0474 2b3c c732 72bd b437 283d
00000240: f8ac 943d 1a54 3c3d cab1 913d 77d8 9d3c
00000250: 028e 0b3d 6ee0 213d aa5e 783d 090a df3b
00000260: a2e9 583d 5c68 f53c eee4 96ba 7494 3b3d
00000270: 85e9 b73c 2122 603d 498d ba3b dcdb eb3b
00000280: 7904 183d 9776 c93c 84ca 203d 1e95 383d
00000290: b5e3 ebbd cee4 563d d50a 3d3c 7b0b 1cbd
000002a0: f6b5 fa3c ab55 623d 16bf 27bd b1b0 313d
000002b0: 6002 4a3d 199b 913d 6bb5 f13c 9d51 813c
000002c0: 1903 db3c c1d5 df3c 89f1 883d 16e7 f23b
000002d0: 2b30 3b3d d1ca c53c 57a0 2c3d 7a71 053c
000002e0: 684c 6a3c 5cd7 7d3d ee21 e13c d516 1f3c
000002f0: a483 5e3c 2f52 2e3b ba11 3f3c d990 da3c
00000300: 1a84 863c bd2d 9b3c e3c6 193d 0947 573c
00000310: a58d 073d b0dc 803d 9fbe 093c 3239 703d
00000320: 8015 b43c 8b70 8d3c eb1c 5f3d 5e52 003d
00000330: 6f72 4d3d 3d67 673c da88 213d b771 9dbc
00000340: 5289 4f3c 875d ecbc 41c3 073d 9aff 6d3d
00000350: def0 bd3c aba1 b63c 038e 8cbd be22 75bd
00000360: 4a0a 393d 41f2 d83a 4957 aabc b418 933c
00000370: c59a 83bc 056a 3ebd cd1c 813d 43a5 cbbb
00000380: 437f f93c a321 9abb 11f1 5ebd 8c02 103d
00000390: ddb4 343d 7e5c 4fbc c9bb 063d d59a da3c
000003a0: 2940 6cbc 880c 9c3c b16a 583c 857c a03d
000003b0: fb27 10bc b3da 563d d8cb 9b3c 4d8c 053c
000003c0: ab17 b93c 2eb3 473d db8b fc3c 83fa 9a3c
000003d0: ff5a d43b 8e81 053d aaa0 e0bc bf97 c63c
000003e0: d90b 893c 7667 b1bc 506f a3ba bdf6 8639
000003f0: 5dd9 3f3c 7721 763d 969a a43c 5a21 adbc

bias f4 [2]
0.059452876 -0.060635924
00000000: dc84 733d 605d 78bd

weight f4 [64, 2, 3, 3]
-0.006856157 0.038023382 0.06248154 0.0034499473 0.00031789974 0.004558057 0.020963479 0.043760378
0.04305516 -0.014420392 -0.017054137 0.0029211452 -0.0011220645 0.059964508 -0.010717755 -0.016208112
-0.011811268 0.0121302055 0.03801541 -0.0010973742 -0.020990131 0.007704252 0.0010229982 -0.0057955133
-0.010641981 -0.0037413638 0.046865452 -0.057583038 0.06506112 0.025045939 -0.0031692812 -0.00843948
0.019741163 0.033214435 0.006137538 -0.07506868 -0.0045178244 -0.006905848 -0.017887766 0.11103841
0.031307068 0.041011248 0.03958804 0.00971648 0.016635884 -0.074815586 -0.0025677725 0.015751079
-0.012609126 0.0005539129 0.02284582 -0.033746332 0.0028503733 0.015247994 0.009805241 -0.00067978655
0.041763257 0.019187357 -0.03698168 -0.008122267 -0.02335453 0.0073487507 -0.008343615 -0.03957389
-0.05726 0.008891581 -0.029483661 0.029536568 0.021761013 -0.036381576 -0.06779965 -0.015533673
0.04949336 0.0076447353 -0.033801798 -0.000245189 -0.016869124 0.010826545 0.051995706 0.02254253
0.057272863 -0.036670424 0.0058509065 0.03384975 0.045029894 -0.0008468561 0.020458452 -0.0036671497
-0.020257272 -0.037902847 -0.005772594 0.016606204 0.008413886 0.00999185 -0.011161262 0.014004934
0.07574883 0.035612404 0.0697159 -0.040754363 0.02434386 -0.03174965 -0.013365563 0.061313882
-0.0064478614 -0.03438935 -0.012830704 -0.03564507 0.0060654636 -0.044684097 -0.04496819 0.013480124
-0.022014204 -0.0018350316 0.026460357 -0.0032346835 -0.022522682 -0.029671421 0.007706675 0.05459385
-0.02845534 -0.030950649 0.038142394 -0.06328494 -0.01615526 0.011375317 -0.019784791 -0.0028572835
-0.008676137 -0.012563453 0.014470425 -0.027039973 -0.060122695 -0.008352251 -0.001546605 0.042271007
-0.010578863 0.04987306 -0.03885378 -0.026667327 0.021932494 0.039574753 0.032266267 0.01678114
0.0064666453 0.017836777 -0.021590605 0.0068533155 -0.012629813 0.008852194 0.013471104 -0.042936523
-0.036196165 -0.038941562 0.008901082 0.0045853187 -0.043602556 -0.014671247 -0.02937109 -0.119540915
0.023324491 -0.027860198 0.064625494 -0.0116708735 0.02790186 0.045609776 -0.041114528 -0.0052051037
0.022732189 -0.030988684 -0.03484359 -0.050485644 -0.022801027 0.02388553 -0.072718546 -0.034257498
-0.021432493 -0.08711592 -0.015343796 0.007311637 0.020048741 0.023524128 0.041943006 -0.024923678
-0.056858666 -0.0016822945 -0.056725107 -0.022860004 0.024013624 -0.0052392064 0.008318741 -0.006411645
-0.020094411 0.028141443 -0.06468151 -0.009041078 0.027413983 -0.04381589 -0.00064830494 -0.011435382
-0.028268972 0.0024565372 0.03252553 0.0104979975 0.017604016 0.043662723 0.04043204 0.018760111
-0.0034446106 0.04685192 0.015562079 0.021129455 0.022256697 0.007550932 -0.0021810697 0.0063470565
-0.0077146417 0.03010105 -0.058166545 0.0023129636 0.0032034768 0.0033573029 -0.032725386 0.020550802
0.010428802 0.013153968 0.045284614 0.058953274 -0.011376681 -0.022812368 0.012153077 0.03958042
0.01704743 -0.004141842 0.0122664645 -0.002986294 -0.0075494614 0.0043254024 -0.015120067 0.009727712
0.035532452 0.01019243 -0.032078575 -0.07987996 -0.067542344 -0.047862116 0.0362344 0.051052693
-0.036875427 -0.079479426 0.04889278 0.023234965 -0.021802567 0.01542912 0.0066393553 0.02503489
00000000: 9da9 e0bb 68be 1b3d a5ec 7f3d 8318 623b
00000010: c8ab a639 c15b 953b 9abb ab3c 153e 333d
00000020: 9c5a 303d 8243 6cbc 1eb5 8bbc af70 3f3b
00000030: 3d12 93ba 589d 753d 8699 2fbc e0c6 84bc
00000040: 0c84 41bc c5bd 463c 0cb6 1b3d c5d5 8fba
00000050: 7ff3 abbc f373 fc3b 2016 863a 4ae8 bdbb
00000060: b45b 2ebc ab31 75bb fdf5 3f3d 31dc 6bbd
00000070: c43e 853d 242d cd3c b7b3 4fbb bf45 0abc
00000080: 38b8 a13c dc0b 083d 661d c93b 9cbd 99bd
00000090: 420a 94bb 744a e2bb 5d89 92bc 1b68 e33d
000000a0: d73b 003d 69fb 273d 1227 223d df31 1f3c
000000b0: fa47 883c ea38 99bd 1348 28bb 6808 813c
000000c0: 8296 4ebc 7734 113a 2827 bb3c 9839 0abd
000000d0: 54cd 3a3b b9d2 793c 29a6 203c b433 32ba
000000e0: f30f 2b3d ce2e 9d3c 1a7a 17bd 4213 05bc
000000f0: 0052 bfbc cacd f03b a8b3 08bc 3b18 22bd
00000100: 7689 6abd fead 113c b887 f1bc acf6 f13c
00000110: 2744 b23c d904 15bd 8bda 8abd f280 7ebc
00000120: 8db9 4a3d b080 fa3b c173 0abd b68c 80b9
00000130: 1e31 8abc d261 313c 73f9 543d 1dab b83c
00000140: f396 6a3d ba33 16bd f6b8 bf3b 09a6 0a3d
00000150: 4471 383d 8dff 5dba 7c98 a73c 9054 70bb
00000160: 94f2 a5bc 0440 1bbd 0728 bdbb bc09 883c
00000170: 65da 093c dbb4 233c badd 36bc f374 653c
00000180: 3422 9b3d 50de 113d 36c7 8e3d 0cee 26bd
00000190: c66c c73c ec0b 02bd 3cfb 5abc 4424 7b3d
000001a0: 9548 d3bb d9db 0cbd e037 52bc 9100 12bd
000001b0: ccc0 c63b ac06 37bd 9130 38bd bddb 5c3c
000001c0: 2257 b4bc 7185 f0ba 64c3 d83c fcfc 53bb
000001d0: 7d81 b8bc 7b11 f3bc 4788 fc3b cd9d 5f3d
000001e0: 2c1b e9bc 378c fdbc 333b 1c3d 899b 81bd
000001f0: 0958 84bc 8a5f 3a3c b713 a2bc 4341 3bbb
00000200: 5b26 0ebc f1d6 4dbc 5d15 6d3c ef82 ddbc
00000210: 3743 76bd e1d7 08bc 74b7 caba 5d24 2d3d
00000220: f852 2dbc b247 4c3d 2425 1fbd 7075 dabc
00000230: c6ab b33c 2319 223d a229 043d 9a78 893c
00000240: 27e6 d33b 6f1e 923c c8de b0bc c791 e03b
00000250: 46ed 4ebc cb08 113c e8b5 5c3c 35de 2fbd
00000260: 6e42 14bd 3081 1fbd d8d5 113c 7140 963b
00000270: 9898 32bd ac5f 70bc a49b f0bc ded1 f4bd
00000280: 0113 bf3c 123b e4bc 5f5a 843d 3137 3fbc
00000290: 7192 e43c 51d1 3a3d b567 28bd 938f aabb
000002a0: db38 ba3c fbdb fdbc 27b8 0ebd 09ca 4ebd
000002b0: 38c9 babc 96ab c33c 76ed 94bd 9751 0cbd
000002c0: 3293 afbc d569 b2bd 8c64 7bbc 7596 ef3b
000002d0: 423d a43c acb5 c03c 6ecc 2b3d be2c ccbc
000002e0: a2e4 68bd 7080 dcba 9658 68bd e744 bbbc
000002f0: 38b8 c43c a6ad abbb 544b 083c c718 d2bb
00000300: 099d a4bc e288 e63c bd77 84bd 0821 14bc
00000310: 4a93 e03c 4a78 33bd 02f3 29ba 785b 3bbc
00000320: 5594 e7bc dbfd 203b 7d39 053d cbff 2b3c
00000330: 4c36 903c afd7 323d 119c 253d ceae 993c
00000340: fabe 61bb cde7 3f3d 17f8 7e3c ae17 ad3c
00000350: ad53 b63c cf6d f73b 47f0 0ebb f8fa cf3b
00000360: 1bcb fcbb 7a96 f63c 0b40 6ebd 1795 173b
00000370: 6cf1 513b 3206 5c3b 0e0b 06bd 285a a83c
00000380: 91dd 2a3c be83 573c 5c7c 393d fd78 713d
00000390: 4265 3abc 01e1 babc b31d 473c 141f 223d
000003a0: 0da7 8b3c 4ab8 87bb 48f9 483c b3b5 43bb
000003b0: 7961 f7bb 1bbc 8d3b 28ba 77bc fb60 1f3c
000003c0: 7a8a 113d 26fe 263c d364 03bd 1b98 a3bd
000003d0: a453 8abd 110b 44bd 866a 143d a11c 513d
000003e0: b00a 17bd 1cc6 a2bd cc43 483d 4157 be3c
000003f0: 4c9b b2bc 6bca 7c3c f38e d93b f815 cd3c

bias f4 [64]
0.08401144 0.12599844 -0.120565854 -0.04339527 0.011752375 -0.19030449 -0.08882945 -0.06788061
-0.2143861 -0.06580623 0.050944895 0.1000741 -0.029463891 -0.26158378 0.17565818 -0.008536158
0.06508711 -0.15618019 0.056663107 -0.1708201 -0.010848109 0.21527758 0.054797072 -0.042724904
-0.043794915 0.22046308 0.13593093 0.18373626 0.13256557 -0.09393861 -0.023836428 -0.038203683
0.07950821 0.056355443 -0.030972058 0.20918977 0.2817361 0.1506482 -0.20466223 -0.07662086
-0.14770232 -0.103160955 -0.00031425443 -0.13114569 -0.19892205 0.0005510277 -0.030822702 -0.0673459
-0.11111946 0.036775727 0.1994421 0.024782464 0.011755271 -0.031943318 -0.2173619 -0.0063376226
0.13560008 -0.14888099 -0.109905355 -0.13457339 -0.022084916 0.26824152 0.27283442 -0.15343809
00000000: 310e ac3d bc05 013e 3beb f6bd 3dbf 31bd
00000010: 098d 403c 2edf 42be 37ec b5bd fd04 8bbd
00000020: 0888 5bbe 6bc5 86bd 98ab 503d a6f3 cc3d
00000030: 425e f1bc 4fee 85be bddf 333e 3edb 0bbc
00000040: 644c 853d b3ed 1fbe 9317 683d 77eb 2ebe
00000050: 44bc 31bc ba71 5c3e e572 603d 4f00 2fbd
00000060: 4c62 33bd 13c1 613e 7a31 0b3e 5c25 3c3e
00000070: 45bf 073e e362 c0bd 9d44 c3bc 777b 1cbd
00000080: 33d5 a23d f7d4 663d 1db9 fdbc d835 563e
00000090: b73f 903e 8643 1a3e fa92 51be 66eb 9cbd
000000a0: 473f 17be 0d46 d3bd 84c2 a4b9 0e4b 06be
000000b0: 39b2 4bbe d872 103a e47f fcbc a6ec 89bd
000000c0: 9992 e3bd 25a2 163d 8d3a 4c3e 9804 cb3c
000000d0: 2e99 403c ffd6 02bd 1e94 5ebe d5ab cfbb
000000e0: bfda 0a3e 4274 18be 0f16 e1bd 9bcd 09be
000000f0: 6deb b4bc f456 893e f4b0 8b3e e01e 1dbe

weight f4 [64]
0.9598454 0.9912751 0.9709209 1.0218695 0.981946 1.0582956 0.96099234 1.020677
0.99522936 1.0557377 0.9443431 0.99696094 0.9692769 1.0448334 1.0991043 0.96755326
1.0435976 0.98180753 0.9475058 1.0893999 0.9165525 1.0015252 0.988929 0.9335943
0.91182774 0.99771374 0.99190974 1.0522683 0.9741873 0.93683714 1.007885 0.96165377
0.92745286 0.9527211 1.0044969 1.0335948 1.0642582 1.0011765 1.0037163 0.9714237
0.9613878 0.8930136 0.9704689 0.9403898 1.0054566 0.98311085 0.8960479 1.0184305
0.9797561 0.94513255 0.9875953 0.9689674 0.912543 0.9170309 0.9896383 0.9868959
0.9382055 1.0388285 0.9291037 0.98625517 0.9440398 1.0702097 1.0324254 1.0853369
00000000: 6eb8 753f 34c4 7d3f 468e 783f 9fcc 823f
00000010: d060 7b3f 3b76 873f 9803 763f 8ba5 823f
00000020: 5ac7 7e3f 6a22 873f 78c0 713f d538 7f3f
00000030: 8822 783f 1abd 853f 73af 8c3f 92b1 773f
00000040: 9b94 853f bd57 7b3f bd8f 723f 7571 8b3f
00000050: 2fa3 6a3f fa31 803f 732a 7d3f 0900 6f3f
00000060: 8b6d 693f 2b6a 7f3f cced 7d3f bab0 863f
00000070: 5764 793f 8fd4 6f3f 6002 813f f12e 763f
00000080: 8d6d 6d3f 88e5 733f 5b93 803f d64c 843f
00000090: 9d39 883f 8d26 803f c779 803f 39af 783f
000000a0: 831d 763f 8a9c 643f a670 783f 63bd 703f
000000b0: cdb2 803f 27ad 7b3f 6563 653f ee5b 823f
000000c0: 4cd1 7a3f 35f4 713f 0cd3 7c3f 3f0e 783f
000000d0: 6b9c 693f 89c2 6a3f f058 7d3f 36a5 7c3f
000000e0: 3c2e 703f 55f8 843f bdd9 6d3f 387b 7c3f
000000f0: 98ac 713f a2fc 883f 8426 843f 52ec 8a3f

bias f4 [64]
0.0031650423 -0.15559313 -0.054869752 0.0053324634 0.010581557 0.07230136 -0.07593337 -0.16984321
-0.14476635 -0.048391394 -0.06970426 -0.057178583 -0.12878035 -0.026081452 -0.2482664 0.013836474
0.014552995 0.023073513 -0.1225399 -0.19354355 -0.19143304 -0.16458428 -0.21629603 -0.06747487
-0.12457117 0.020511348 -0.12560755 -0.12244901 -0.1472947 -0.026652219 -0.05384731 -0.22702911
-0.23842774 -0.031678863 -0.014656789 0.12110103 -0.12220572 0.007526448 -0.11982729 -0.14679639
-0.042705406 -0.1155086 -0.022993049 -0.09624094 -0.07338481 -0.073091134 -0.10688012 0.03478927
-0.17060989 -0.0976022 0.030403063 -0.11916063 -0.3680353 -0.07079888 -0.025138121 0.0021219424
-0.057513554 -0.117118485 -0.12368255 -0.116719924 -0.10003647 0.120785944 -0.20377202 -0.17190693
00000000: 996c 4f3b ce53 1fbe 1bbf 60bd f2bb ae3b
00000010: 445e 2d3c bc12 943d f482 9bbd 61eb 2dbe
00000020: a13d 14be 0e36 46bd 1bc1 8ebd 1734 6abd
00000030: ffde 03be c5a8 d5bc 8c39 7ebe 61b2 623c
00000040: af6f 6e3c aa04 bd3c 33f6 fabd 4830 46be
00000050: 0607 44be c888 28be b57c 5dbe 4430 8abd
00000060: 2b1f ffbd 6a07 a83c 449f 00be 8cc6 fabd
00000070: 6cd4 16be c155 dabc ff8e 5cbd 527a 68be
00000080: 6726 74be b2c1 01bd 0723 70bc d103 f83d
00000090: fe46 fabd 6ca0 f63b 0368 f5bd cb51 16be
000000a0: ddeb 2ebd c68f ecbd eb5b bcbc f819 c5bd
000000b0: c64a 96bd ceb0 95bd f7e3 dabd 327f 0e3d
000000c0: 5cb4 2ebe aae3 c7bd d80f f93c 7d0a f4bd
000000d0: 1f6f bcbe 01ff 90bd 76ee cdbc 4910 0b3b
000000e0: 5593 6bbd d1db efbd 474d fdbd db0a efbd
000000f0: ecdf ccbd 9f5e f73d 9da9 50be 5f08 30be

running_mean f4 [64]
0.22955458 0.16215031 0.025209177 -0.06074599 0.11533878 -0.0516213 -0.15877606 -0.14334358
-0.27891234 -0.06662569 0.0056457003 0.18701176 -0.035039626 -0.2662888 0.115819804 0.1779016
0.1063081 -0.035551757 0.037277926 -0.17161494 -0.010243014 0.1250569 -0.02381735 -0.033063658
-0.113705665 0.33087233 0.0067468244 0.16618665 -0.002161611 -0.030678354 -0.01704377 -0.014913171
-0.08465701 0.11455088 0.06640835 0.27445993 0.2581299 0.1953233 -0.26384562 -0.18218386
-0.12180933 0.065777965 0.14006247 -0.114217356 -0.23400705 -0.026539994 -0.05183764 -0.04111113
-0.15878512 0.04674752 0.34627813 0.032270815 0.011180134 0.08203741 -0.22910132 -0.000919074
0.30926436 -0.15972741 -0.047743164 -0.22446603 -0.004250229 0.3661852 0.21261916 -0.1848089
00000000: 5b10 6b3e bb0a 263e 7a83 ce3c cad0 78bd
00000010: bd36 ec3d db70 53bd 3196 22be a9c8 12be
00000020: 99cd 8ebe 0d73 88bd 91ff b83b 0380 3f3e
00000030: b685 0fbd 0157 88be ef32 ed3d d62b 363e
00000040: 10b8 d93d b89e 11bd bdb0 183d d4bb 2fbe
00000050: 51d2 27bc ea0e 003e 9a1c c3bc c26d 07bd
00000060: 84de e8bd 1968 a93e 7714 dd3b d52c 2a3e
00000070: d1a9 0dbb 2c51 fbbc 609f 8bbc 5f56 74bc
00000080: a860 adbd a799 ea3d 1a01 883d 0386 8c3e
00000090: 9a29 843e d502 483e c616 87be 688e 3abe
000000a0: 2c77 f9bd 99b6 863d 896c 0f3e caea e9bd
000000b0: 8b9f 6fbe 676a d9bc b553 54bd 2564 28bd
000000c0: 9198 22be 547a 3f3d 5e4b b13e 672e 043d
000000d0: e12c 373c 3b03 a83d 8999 6abe 03ee 70ba
000000e0: e657 9e3e 958f 23be 568e 43bd 6cda 65be
000000f0: 8145 8bbb a07c bb3e d6b8 593e 8b3e 3dbe

running_var f4 [64]
0.0064094495 0.000479501 0.010342255 0.0008766149 0.0035876825 0.008985946 0.0029157156 0.003870249
0.0015738558 0.0029376156 0.0011942468 0.0015445987 0.001124917 0.0022200607 0.0018342596 0.012158943
0.0016469735 0.0045506116 0.00081391126 0.0007067892 0.00013447742 0.005129338 0.0032650817 0.0046633286
0.0043318695 0.0039013838 0.006873892 0.0010648774 0.00527797 0.0013161818 0.004501335 0.001245588
0.011046956 0.001434425 0.0040176697 0.0018933814 0.00039465982 0.0022125442 0.0012755299 0.004694558
0.0045468747 0.0064253057 0.009952698 0.004082025 0.0005219105 0.00023294748 0.0043869065 0.0017792863
0.002484746 0.0006471295 0.0087043345 0.0007847401 6.681243e-05 0.0056784987 0.0025622793 0.0010822618
0.009527184 0.004387107 0.0012881147 0.0041479855 0.0026856062 0.0053090868 0.000989988 0.0011322229
00000000: 5c06 d23b 8965 fb39 9072 293c a1cc 653a
00000010: 531f 6b3b ca39 133c 9715 3f3b 01a4 7d3b
00000020: d649 ce3a 0385 403b 4688 9c3a 2274 ca3a
00000030: f371 933a 707e 113b 8a6b f03a 4e36 473c
00000040: 43df d73a 4c1d 953b a95c 553a d247 393a
00000050: 8202 0d39 0114 a83b fbfa 553b d6ce 983b
00000060: 5bf2 8d3b 5cae 7f3b 633e e13b 5b93 8b3a
00000070: d2f2 ac3b bc83 ac3a ef7f 933b ff42 a33a
00000080: 4bfe 343c 5103 bc3a a8a6 833b 562b f83a
00000090: 58ea ce39 5500 113b ae2f a73a cfd4 993b
000000a0: f3fd 943b 5f8b d23b a410 233c 82c2 853b
000000b0: d2d0 083a 5d43 7439 0ac0 8f3b f136 e93a
000000c0: 1fd7 223b 20a4 293a a09c 0e3c 04b7 4d3a
000000d0: a61d 8c38 b312 ba3b eaeb 273b aeda 8d3a
000000e0: e817 1c3c b9c1 8f3b f5d5 a83a d3eb 873b
000000f0: ff00 303b d9f7 ad3b 7cc2 813a 1967 943a
