generators/Generador_dummy/generators.pth (torch, 650338 bytes, 52 tensors)

weight f4 [64, 1, 3, 3]
0	0xbc681d95	-0.014167209
1	0x3c7500de	0.01495382
2	0xbc471004	-0.0121498145
3	0xbc8a1ef0	-0.016860455
4	0xbc58f699	-0.013242387
5	0x3d07efbb	0.03318761
6	0xbbc0b7ad	-0.005881271
7	0x3a88b13b	0.0010428795
8	0xbcec8262	-0.028870765
9	0x3d004b51	0.031321827
10	0x3b8801ad	0.0041505904
11	0x3c646605	0.013940339
12	0x3b3e848d	0.0029070706
13	0xbb5003dc	-0.0031740582
14	0x3c1e2f72	0.0096548665
15	0x3d0466dc	0.032324657
16	0xbc8758cf	-0.01652184
17	0xbd2476e4	-0.040152445
18	0xba466a79	-0.0007568966
19	0xbca74502	-0.020418648
20	0x3c531a41	0.012884677
21	0x39ceb013	0.00039422567
22	0x3cd4f1b4	0.02599416
23	0xbbbf0ff2	-0.0058307583
24	0xba9b72c0	-0.001185976
25	0xbc953310	-0.018212825
26	0x3ccc61b5	0.024948934
27	0x3c441c6d	0.011969668
28	0xbb8562e3	-0.004070626
29	0xbc94c9e5	-0.018162677
30	0x39eb5861	0.0004488854
31	0xbc87cb0f	-0.016576318
32	0x3ba4863c	0.005020885
33	0x3c7f8539	0.015595728
34	0xbc0a3a7f	-0.008436798
35	0x3bb3a10f	0.005481846
36	0xbc938049	-0.018005507
37	0xbcfdce3c	-0.03098213
38	0xb8c6a418	-9.4719406e-05
39	0xbc9f0106	-0.019409668
40	0xbc9a8f30	-0.018867105
41	0x3c5a4f26	0.0133245345
42	0x3c4467a4	0.0119876005
43	0x3c880b95	0.016607085
44	0xba66a2bb	-0.00087980524
45	0xbc0d4110	-0.008621469
46	0xba4165a9	-0.0007377514
47	0xbb234576	-0.0024913228
48	0x3c6c3873	0.014417755
49	0x3c57f452	0.013180809
50	0x3c3e1d72	0.0116037
51	0xbc3f5ebe	-0.011680303
52	0xbc09b1c8	-0.008404203
53	0xbb7efa81	-0.0038906636
54	0x3c9acb4e	0.018895771
55	0xbca4fc27	-0.020139767
56	0xbc8064f0	-0.01567313
57	0xbce2418b	-0.027619144
58	0xbc4b87d8	-0.012422524
59	0x3cb24585	0.021761665
60	0x3b9385e7	0.0045020464
61	0xbc7f7c13	-0.015593546
62	0xbcae7bbe	-0.02129924
63	0xba263f0f	-0.0006341794
64	0x3d0ccc18	0.034374326
65	0x3b37c15c	0.0028038835
66	0xbd2e9510	-0.042622626
67	0x3ce1f97e	0.027584787
68	0xbb822017	-0.0039711106
69	0xbc1c0004	-0.009521488
70	0x3bb32b2d	0.0054677934
71	0x3c3ea834	0.011636782
72	0x3c86d8c4	0.016460784
73	0x3ad93001	0.0016570092
74	0x3c085df9	0.008323186
75	0xbbbe440e	-0.0058064526
76	0x3c87e56c	0.016588889
77	0x3b009b2d	0.0019623742
78	0xbcf29a09	-0.029614465
79	0x3d4af019	0.04954538
80	0x3cc44e7c	0.023963206
81	0xbc73b869	-0.01487551
82	0xbc90afed	-0.017662013
83	0xbc477945	-0.012174909
84	0xbc758a77	-0.014986626
85	0x3be82c9c	0.007085396
86	0xbb315ee0	-0.0027064607
87	0xbaae4c1e	-0.0013297831
88	0x3ccd53bc	0.025064342
89	0x3d0267e7	0.03183737
90	0xbc8c1785	-0.017101059
91	0x3b8c2bbc	0.0042776745
92	0x3c7d55c1	0.01546234
93	0xbd02612d	-0.031830955
94	0x3c1913b0	0.009343073
95	0xbb8f7053	-0.0043774038
96	0xbc398422	-0.011323007
97	0x3b71dfcc	0.0036907075
98	0xbba6da1b	-0.005091918
99	0xbb7a8dcf	-0.0038231497
100	0xbb4fd7c9	-0.0031714311
101	0x3b91d91b	0.00445093
102	0x3d04ecfd	0.032452572
103	0x3c0174c8	0.007901378
104	0xbcc46540	-0.023974061
105	0x3b05b5bf	0.0020402519
106	0xbcc3e715	-0.0239139
107	0x3c918059	0.017761396
108	0xbc58e799	-0.013238811
109	0x3a80a44c	0.0009814589
110	0x3d055374	0.03255029
111	0xbc69201b	-0.014228846
112	0x3a29e765	0.0006481319
113	0x3c4cd001	0.012500764
114	0x3b73ae4a	0.0037182742
115	0xbc69a180	-0.014259696
116	0xbd192460	-0.037388206
117	0x3c1e517d	0.009662983
118	0xbcb79c6d	-0.022413457
119	0xbd127fbf	-0.03576636
120	0xbc0728a1	-0.008249433
121	0x3ad0d8f4	0.0015933798
122	0xbc14b436	-0.009076169
123	0xbc84c6ad	-0.016208017
124	0x3c94bfb8	0.018157825
125	0x3c0a43b2	0.008438991
126	0x3cc44022	0.023956362
127	0x3c5dda5b	0.0135408295
128	0x3b9ccfbf	0.0047855075
129	0xbd2283fc	-0.03967665
130	0xbb3e6958	-0.002905449
131	0x3b45f7cb	0.003020751
132	0x3c380cd4	0.011233527
133	0x3c3e3ce4	0.011611197
134	0x3ba6e985	0.0050937557
135	0x3ce42884	0.02785135
136	0xbb6e028f	-0.0036317443
137	0x3c06f8f9	0.008238071
138	0x3c539484	0.012913827
139	0x3b8989a7	0.0041973176
140	0x3c84f761	0.01623124
141	0x3ac0e8a1	0.0014717766
142	0xbaf5834a	-0.0018731144
143	0x3d078e90	0.033094943
144	0x3b6401db	0.0034791145
145	0x3b7e3bc6	0.0038792952
146	0xbc37e713	-0.011224526
147	0xbc6a6567	-0.014306403
148	0x3b396818	0.0028290804
149	0x3c400ef2	0.011722313
150	0xbce5e060	-0.028061092
151	0xbcb4e204	-0.022080429
152	0xbbee7d93	-0.007278153
153	0xbc9a4796	-0.018832963
154	0x3beed6fe	0.0072888127
155	0xbc58b23d	-0.013226089
156	0xbc3fe82d	-0.01171307
157	0x3ca1f6f4	0.019771077
158	0xba9b1937	-0.0011833076
159	0xbc68acde	-0.014201371
160	0x3d48bdf9	0.049009297
161	0x3c5c6a0c	0.013453018
162	0xbb834746	-0.004006299
163	0x3c88317d	0.01662516
164	0x3c8ab7c8	0.016933337
165	0xbcb58525	-0.022158215
166	0xbbc0bba2	-0.0058817426
167	0x3cf7c18a	0.030243654
168	0x3b19a5a8	0.0023444686
169	0xbb977944	-0.0046226103
170	0x3b5328bc	0.0032220325
171	0x3ce4271e	0.027850684
172	0xbabfaa06	-0.0014622814
173	0x3cfcd37b	0.03086256
174	0xbc81108a	-0.015754957
175	0x3bcc2c70	0.0062308833
176	0xbbb8d8a0	-0.005641058
177	0x3be07d6a	0.006850888
178	0x3cd858d5	0.026409546
179	0xbc6e7c70	-0.014556035
180	0x3b18438e	0.0023233625
181	0xbba89184	-0.0051443
182	0xbc80c6da	-0.01571982
183	0x394e6a8e	0.00019685386
184	0x3bda5740	0.006663233
185	0x3cfadbdc	0.030622415
186	0x3cc3c2c5	0.023896584
187	0xbcaaa181	-0.020828964
188	0xbc872502	-0.016497139
189	0xbc772729	-0.01508502
190	0xb99237ec	-0.00027888955
191	0x3c1db2f0	0.009625182
192	0xbb2170e0	-0.002463393
193	0xbb7faf14	-0.0039014267
194	0x3c70eaf8	0.014704458
195	0xb9ab7dc2	-0.00032709358
196	0xbcbc3c0d	-0.022977853
197	0xbbf554a3	-0.007486896
198	0xbd2fdee5	-0.04293718
199	0xbcea9883	-0.028637176
200	0x3cbac9c1	0.022801282
201	0xbcbd502b	-0.023109516
202	0xbca15f27	-0.019698692
203	0xbd362549	-0.04446915
204	0x3ab74cc2	0.0013984668
205	0xbcabd1db	-0.02097409
206	0x3c880ba8	0.01660712
207	0xbc7620fc	-0.0150225125
208	0x3c73b90f	0.014875664
209	0xbb9d9709	-0.0048092646
210	0x3c64d672	0.013967143
211	0xbcb7d55c	-0.022440605
212	0xbc074412	-0.008255975
213	0x3ce59052	0.028022919
214	0xbd158e25	-0.036512513
215	0x3cc07ab2	0.023496006
216	0x3bbd9f65	0.0057868236
217	0xbca9fc81	-0.020750286
218	0xbcad4272	-0.021149848
219	0x37a3d637	1.9530866e-05
220	0xbc1dbf00	-0.0096280575
221	0x3c5b7817	0.013395331
222	0x3be8e1cf	0.0071069966
223	0xbcadfa04	-0.02123738
224	0x3c902ab6	0.017598491
225	0x3c543780	0.012952685
226	0xbc06f33f	-0.008236705
227	0x393b7982	0.00017878975
228	0x3d0eec57	0.03489336
229	0xbce02b7d	-0.027364487
230	0x3cb1d3e2	0.021707479
231	0x3d4aa3a2	0.04947246
232	0x3b6d3bca	0.0036198967
233	0x3be96a7c	0.0071232896
234	0x3cd6240f	0.026140241
235	0xbb8bacbe	-0.004262536
236	0x3c94e59f	0.018175898
237	0x3cb7494f	0.022373823
238	0xbca59c78	-0.020216212
239	0xbc34db9d	-0.011038688
240	0xbbe2c030	-0.006919883
241	0x3b9719ea	0.0046112435
242	0xbd898e70	-0.06716621
243	0xbcc83f33	-0.024444198
244	0x3d06ebdb	0.032939773
245	0xbcb4d62a	-0.022074778
246	0x3cbef8dc	0.023312025
247	0xbbb14df6	-0.005410905
248	0x3cb8d1f9	0.02256106
249	0x3d3f9a98	0.04677829
250	0xbadad500	-0.0016695559
251	0x3ce5ee4c	0.02806773
252	0x3a0422a6	0.00050405634
253	0xbb85891e	-0.0040751835
254	0xbcb18850	-0.021671444
255	0x3d07eab0	0.0331828

bias f4 [64]
0	0xbe8674ea	-0.26261073
1	0xbe9eb920	-0.31000614
2	0x3ea27a2f	0.31733844
3	0xbe9ada1c	-0.3024453
4	0xbe242d18	-0.16032827
5	0x3d3f1558	0.046651214
6	0xbe09bfbe	-0.1345205
7	0xbe9bf1b7	-0.3045785
8	0xbe65fdc6	-0.22460088
9	0xbd83fcb4	-0.06444684
10	0xbd8fdc60	-0.07024455
11	0x3d6736f8	0.056448907
12	0xbe7e48a0	-0.24832392
13	0xbd013e60	-0.031553626
14	0xbea49507	-0.3214495
15	0xbdcf1226	-0.101108834
16	0x3e39b652	0.18135956
17	0x3ea1bfa1	0.31591514
18	0x3e99fb2d	0.30074444
19	0xbd878354	-0.06616846
20	0x3ea67ad9	0.325156
21	0xbe927aba	-0.28609258
22	0xbc16e920	-0.009210855
23	0x3e5f40a2	0.21801999
24	0x3e1da24a	0.1539394
25	0xbdaa7edc	-0.08324978
26	0x3e1d1f70	0.15344024
27	0xbc47ad00	-0.0121872425
28	0xbe6a85eb	-0.22902648
29	0x3e9c04cd	0.30472413
30	0x3e158e6a	0.14605108
31	0xbe5f9c13	-0.21836881
32	0x3ea19d11	0.31565145
33	0x3d305aa0	0.043055177
34	0x3df78960	0.12086749
35	0x3e50cf7a	0.20391646
36	0x3e296a00	0.16544342
37	0x3e952c6d	0.29135457
38	0x3e9c5531	0.30533746
39	0x3e30386a	0.1720902
40	0xbe1d861b	-0.15383188
41	0xbd9d1170	-0.076693416
42	0x3e06f9aa	0.13181177
43	0xbe6fc51b	-0.23415034
44	0x3e35df6a	0.17761007
45	0x3ea31ded	0.3185877
46	0xbe5b26f6	-0.21401581
47	0x3e9ab4b3	0.30215988
48	0xbcaf48f0	-0.021397084
49	0xbea80333	-0.3281494
50	0xbd6566c8	-0.056006223
51	0xbdef1450	-0.11673796
52	0x3dcf5fc4	0.10125688
53	0x3c97c600	0.018527031
54	0x3e20ed1e	0.15715453
55	0x3cfb1f90	0.030654699
56	0x3be860c0	0.0070916116
57	0x3b863500	0.0040956736
58	0x3ea0415d	0.31299868
59	0x3cdec740	0.02719462
60	0x3e213192	0.15741566
61	0x3e04f60a	0.12984481
62	0x3e918867	0.2842438
63	0x3e36637a	0.17811385

weight f4 [64]
0	0x3f82beec	1.0214515
1	0x3f7e9436	0.994449
2	0x3f816b00	1.0110779
3	0x3f826417	1.0186795
4	0x3f80412c	1.0019889
5	0x3f805e96	1.0028865
6	0x3f823984	1.0173802
7	0x3f7c80c3	0.98633975
8	0x3f824e4d	1.0180146
9	0x3f7e8d86	0.994347
10	0x3f7fc63b	0.9991185
11	0x3f815f6c	1.0107245
12	0x3f7c635c	0.9858911
13	0x3f77a996	0.9674314
14	0x3f7d0d5c	0.9884851
15	0x3f82f502	1.023102
16	0x3f7c4cd2	0.9855472
17	0x3f858fd6	1.043452
18	0x3f81d783	1.0143894
19	0x3f875d93	1.0575432
20	0x3f7b2988	0.98110247
21	0x3f7dcb36	0.991382
22	0x3f81437b	1.0098718
23	0x3f823ade	1.0174215
24	0x3f7fb0fa	0.9987942
25	0x3f7cb6c5	0.98716384
26	0x3f80608c	1.0029464
27	0x3f805f26	1.0029037
28	0x3f7e932f	0.99443334
29	0x3f7bba5d	0.9833124
30	0x3f7bd191	0.9836665
31	0x3f7caebd	0.9870413
32	0x3f7f010d	0.9961098
33	0x3f7cf44d	0.98810273
34	0x3f767256	0.9626821
35	0x3f80ebcb	1.0071958
36	0x3f7a1b9b	0.9769837
37	0x3f812339	1.0088874
38	0x3f7ac466	0.9795593
39	0x3f81d49c	1.0143008
40	0x3f8176b7	1.0114354
41	0x3f7e975c	0.99449706
42	0x3f82ca40	1.0217972
43	0x3f8076a6	1.0036209
44	0x3f82aa5b	1.0208238
45	0x3f7e030f	0.9922342
46	0x3f82135a	1.0162156
47	0x3f802c8e	1.0013597
48	0x3f73c8fc	0.9522855
49	0x3f74e348	0.95659304
50	0x3f81886b	1.0119756
51	0x3f7e00d0	0.9921999
52	0x3f844979	1.0334922
53	0x3f8090ad	1.0044152
54	0x3f83495f	1.0256766
55	0x3f826cc3	1.0189441
56	0x3f805ece	1.0028932
57	0x3f7d9d40	0.9906807
58	0x3f810983	1.0081028
59	0x3f829062	1.0200312
60	0x3f80ecb5	1.0072237
61	0x3f7fb1e2	0.998808
62	0x3f81faed	1.0154701
63	0x3f7fbb7d	0.9989546

bias f4 [64]
0	0x00000000	0.0
1	0x00000000	0.0
2	0x00000000	0.0
3	0x00000000	0.0
4	0x00000000	0.0
5	0x00000000	0.0
6	0x00000000	0.0
7	0x00000000	0.0
8	0x00000000	0.0
9	0x00000000	0.0
10	0x00000000	0.0
11	0x00000000	0.0
12	0x00000000	0.0
13	0x00000000	0.0
14	0x00000000	0.0
15	0x00000000	0.0
16	0x00000000	0.0
17	0x00000000	0.0
18	0x00000000	0.0
19	0x00000000	0.0
20	0x00000000	0.0
21	0x00000000	0.0
22	0x00000000	0.0
23	0x00000000	0.0
24	0x00000000	0.0
25	0x00000000	0.0
26	0x00000000	0.0
27	0x00000000	0.0
28	0x00000000	0.0
29	0x00000000	0.0
30	0x00000000	0.0
31	0x00000000	0.0
32	0x00000000	0.0
33	0x00000000	0.0
34	0x00000000	0.0
35	0x00000000	0.0
36	0x00000000	0.0
37	0x00000000	0.0
38	0x00000000	0.0
39	0x00000000	0.0
40	0x00000000	0.0
41	0x00000000	0.0
42	0x00000000	0.0
43	0x00000000	0.0
44	0x00000000	0.0
45	0x00000000	0.0
46	0x00000000	0.0
47	0x00000000	0.0
48	0x00000000	0.0
49	0x00000000	0.0
50	0x00000000	0.0
51	0x00000000	0.0
52	0x00000000	0.0
53	0x00000000	0.0
54	0x00000000	0.0
55	0x00000000	0.0
56	0x00000000	0.0
57	0x00000000	0.0
58	0x00000000	0.0
59	0x00000000	0.0
60	0x00000000	0.0
61	0x00000000	0.0
62	0x00000000	0.0
63	0x00000000	0.0

running_mean f4 [64]
0	0xbe8695a8	-0.26286054
1	0xbe9e9e42	-0.30980116
2	0x3ea28811	0.31744435
3	0xbe9ae0eb	-0.30249724
4	0xbe247555	-0.16060384
5	0x3d3f2a69	0.046671305
6	0xbe0a2926	-0.1349226
7	0xbe9bde1c	-0.30442894
8	0xbe657c30	-0.22410655
9	0xbd83fbeb	-0.06444534
10	0xbd904fa5	-0.07046441
11	0x3d6773a1	0.056506757
12	0xbe7e7568	-0.24849474
13	0xbd028e67	-0.031874087
14	0xbea47d1c	-0.321267
15	0xbdcddee4	-0.10052279
16	0x3e39571c	0.18099636
17	0x3ea1d74c	0.3160957
18	0x3e9a14ab	0.30093893
19	0xbd86c5b2	-0.06580676
20	0x3ea67f23	0.32518873
21	0xbe9290b4	-0.28626025
22	0xbc247663	-0.010037991
23	0x3e5f3635	0.21798022
24	0x3e1d7546	0.15376768
25	0xbda9588b	-0.08268841
26	0x3e1ce3af	0.1532123
27	0xbc3debfb	-0.011591907
28	0xbe6a1484	-0.22859389
29	0x3e9c6065	0.30542293
30	0x3e15beae	0.1462352
31	0xbe603c6f	-0.21898054
32	0x3ea1cae5	0.3160011
33	0x3d31058d	0.043218184
34	0x3df7283c	0.12068221
35	0x3e50782f	0.20358346
36	0x3e29a77d	0.16567798
37	0x3e95378d	0.29143944
38	0x3e9c7392	0.30556923
39	0x3e2fc3c8	0.17164528
40	0xbe1db09f	-0.15399407
41	0xbd9db47d	-0.07700441
42	0x3e062148	0.13098633
43	0xbe6fdc4b	-0.23423879
44	0x3e35f484	0.17769057
45	0x3ea362d0	0.31911325
46	0xbe5b2dc1	-0.21404172
47	0x3e9acdcf	0.30235144
48	0xbcb1ee0a	-0.021719951
49	0xbea83dd9	-0.32859686
50	0xbd64306b	-0.055710237
51	0xbdee40fd	-0.11633489
52	0x3dcfe639	0.10151333
53	0x3c9ace37	0.018897159
54	0x3e2145e8	0.15749323
55	0x3cfcf7de	0.030879911
56	0x3bf480a1	0.007461623
57	0x3b913bc5	0.004432174
58	0x3ea088fc	0.3135451
59	0x3ce05e2a	0.02738865
60	0x3e2100ef	0.15723012
61	0x3e04d8ae	0.12973282
62	0x3e9176b7	0.28410885
63	0x3e35e510	0.17763162

running_var f4 [64]
0	0x3b05039f	0.0020296348
1	0x3b3fcafb	0.0029265273
2	0x3ac70876	0.0015185017
3	0x3a4f16cf	0.0007899822
4	0x3af331d0	0.0018554274
5	0x3a132998	0.0005613803
6	0x3b0c58d7	0.0021415257
7	0x3b354862	0.0027661552
8	0x3b513c8c	0.0031926958
9	0x3af01572	0.0018316938
10	0x3aab6e60	0.0013079159
11	0x3aeda63f	0.001813121
12	0x3b138a0c	0.0022512702
13	0x3af3026e	0.0018540153
14	0x3aed6dc8	0.0018114382
15	0x3ad97721	0.0016591289
16	0x3aa6d280	0.0012727529
17	0x3b3067dd	0.0026917376
18	0x3abddc4f	0.0014485213
19	0x3b086d8b	0.0020817246
20	0x3ade83aa	0.0016976495
21	0x3a4f3e66	0.00079057214
22	0x3b9d036a	0.0047916668
23	0x3b303a1c	0.0026890105
24	0x3ab4cc84	0.001379386
25	0x3b6583d6	0.0035021207
26	0x3b96b925	0.0045997077
27	0x3b8c551d	0.004282607
28	0x3b212108	0.0024586339
29	0x3b3bea7f	0.0028673706
30	0x3a7a3a8b	0.0009545467
31	0x3b94d32a	0.0045417743
32	0x3ace7a13	0.0015752934
33	0x3b13632c	0.002248953
34	0x3ae2916f	0.0017285774
35	0x3ae7182f	0.0017631109
36	0x3b889474	0.0041680876
37	0x3b1b0828	0.0023655985
38	0x3b03db50	0.0020119734
39	0x3b523616	0.0032075695
40	0x3b204e9f	0.0024460924
41	0x3b498257	0.0030747855
42	0x3b619e7c	0.003442674
43	0x3a2aeb20	0.00065200217
44	0x3b6eee1a	0.0036457838
45	0x3b39c937	0.0028348693
46	0x3b31b755	0.002711733
47	0x3b43acae	0.0029857564
48	0x3b28a6cd	0.0025734187
49	0x3b15ea6a	0.0022875317
50	0x3b636674	0.0034698518
51	0x3ae158a1	0.0017192551
52	0x3af58af2	0.0018733426
53	0x3b0a5382	0.0021106903
54	0x3b04a092	0.002023731
55	0x3abc29f0	0.001435576
56	0x3b715113	0.0036822006
57	0x3b9d0f76	0.004793103
58	0x3b6682d2	0.003517319
59	0x3b33ff42	0.0027465378
60	0x3b669a7a	0.003518729
61	0x3af5643a	0.0018721886
62	0x3b658d35	0.0035026793
63	0x3a99fcd3	0.0011748321

weight f4 [64, 64, 3, 3]
0	0xbcb674f0	-0.022272557
1	0xbcf5048c	-0.029909395
2	0x3d095cfe	0.03353595
3	0x3c8bee16	0.017081302
4	0xbc8eae86	-0.017417204
5	0xbba0737e	-0.0048965802
6	0x3c793a55	0.015211661
7	0x3c32e72e	0.010919375
8	0x3cd4de90	0.025985032
9	0x3c3a6c00	0.011378288
10	0x3b4a957d	0.0030911856
11	0x3c89ec76	0.016836386
12	0x3be4fb13	0.006987938
13	0x3bd1a172	0.0063974196
14	0x3ca4c1eb	0.020111999
15	0x3c11a39b	0.008889104
16	0x3ca58273	0.020203805
17	0x3d01141f	0.03151333
18	0xbc0ec01d	-0.008712796
19	0x3c0ad752	0.008474188
20	0x3cd84fdb	0.026405266
21	0x3c6054ac	0.013692062
22	0xbd468d02	-0.04847432
23	0x3c5f6574	0.013635028
24	0xbca73667	-0.020411683
25	0xbcf0b167	-0.029381467
26	0x3c94de7b	0.018172493
27	0x3d00172e	0.031272106
28	0x3cb160c5	0.021652589
29	0xbaa66534	-0.0012694956
30	0xbc93805b	-0.01800554
31	0xbc8ad980	-0.016949415
32	0xbc3f59c5	-0.011679118
33	0xbcfe43a0	-0.031038105
34	0x3b74238c	0.0037252633
35	0x3b9d6509	0.004803304
36	0xbbefb8bd	-0.0073157237
37	0x3d0d6957	0.034524288
38	0x3a8d9a76	0.0010803479
39	0xbcc1b60b	-0.023646375
40	0xbd0634b9	-0.032765124
41	0xbc81197e	-0.015759226
42	0x3c8797a2	0.016551796
43	0x3c3b8ae4	0.011446688
44	0xbc1642a5	-0.009171163
45	0xbc892a9d	-0.016743952
46	0xbccd438f	-0.025056629
47	0x3cb050a9	0.021522837
48	0x3c5aefe0	0.013362855
49	0xbc763bbe	-0.015028892
50	0xbba9a572	-0.0051771933
51	0xbc952a72	-0.018208716
52	0xbc4a98cf	-0.012365534
53	0xbc5b03af	-0.013367577
54	0xbc87a342	-0.01655734
55	0xbd2afcf2	-0.041745134
56	0x3c29cf7e	0.010364411
57	0x3c13caf6	0.009020558
58	0x3c18ef9e	0.009334473
59	0x3c961520	0.01832062
60	0xbbb24ce9	-0.0054412973
61	0xbcf62b70	-0.03005001
62	0xbc40bdae	-0.011763973
63	0x3ccbb5cd	0.024866963
64	0x3a8f89df	0.0010951123
65	0xbbcd1e3e	-0.0062597087
66	0xbd15b070	-0.036545217
67	0xbcb7c20e	-0.0224314
68	0xbaa2b057	-0.0012412173
69	0xbd079013	-0.033096384
70	0xba9310f3	-0.0011220261
71	0x3cbc7b8a	0.023008127
72	0xbca8cfbe	-0.020606872
73	0xb92e3f9b	-0.00016617628
74	0x3bc3c2fc	0.0059741717
75	0xbd1bbf30	-0.038024127
76	0xbc425cb9	-0.011862927
77	0x3d431992	0.047631808
78	0xbc6f4061	-0.0146027515
79	0x3d0e8511	0.03479487
80	0xb8be79be	-9.082582e-05
81	0xbc8be8d2	-0.01707879
82	0x3b9eb1e5	0.004842984
83	0x3c7255a6	0.014790928
84	0x3bf5e7db	0.007504446
85	0x3cc82ec2	0.024436358
86	0x3b6d322a	0.003619323
87	0xb97f0023	-0.00024318746
88	0xbd2de3ed	-0.042453695
89	0x3b832db6	0.004003252
90	0xbba55864	-0.0050459374
91	0x3d19e47b	0.03757141
92	0x3c98971b	0.01862674
93	0x3b90fd40	0.004424721
94	0x3ae666b7	0.0017578219
95	0x3cb97105	0.0226369
96	0xba4e14ef	-0.0007861396
97	0xbb23e9d6	-0.0025011203
98	0xbc3c2f21	-0.011485846
99	0x3cc9390b	0.024563333
100	0xbce23c49	-0.027616637
101	0x3c4e8b0f	0.012606396
102	0xbc936669	-0.017993169
103	0x3d216332	0.03940124
104	0xbd08e45c	-0.033420905
105	0xbcc3180e	-0.023815181
106	0xbc102972	-0.008798944
107	0xbb035334	-0.0020038607
108	0xbd17ecfe	-0.037091248
109	0xbc35f805	-0.011106496
110	0x3c844899	0.016147899
111	0xbcb6e1be	-0.02232444
112	0xbb3faee9	-0.0029248542
113	0x3c9df930	0.01928386
114	0xbc599919	-0.01328113
115	0xbb0b07b8	-0.0021214318
116	0x3cf48977	0.029850705
117	0xbafcdd33	-0.0019291997
118	0xbb9e0638	-0.0048225187
119	0x3bc243e0	0.0059285015
120	0xbc03a7c7	-0.008035607
121	0x3cbd2580	0.02308917
122	0xbc8c27dc	-0.01710885
123	0x3bd78121	0.0065766727
124	0x3be94ac0	0.0071195066
125	0xbc54e2c9	-0.012993523
126	0xbba540ad	-0.0050431103
127	0xbc45c4e6	-0.01207087
128	0xb9bc2113	-0.00035882797
129	0x3c2c9e20	0.010535747
130	0x3c83e0bf	0.016098378
131	0xbb719895	-0.0036864628
132	0x3c858d90	0.016302854
133	0x3d025dae	0.03182762
134	0xbbf9ab7c	-0.0076193195
135	0xbc0be318	-0.00853803
136	0xbbaaa42d	-0.0052075596
137	0xbc0ab0ef	-0.008465036
138	0x3c867754	0.016414322
139	0x3c8f72eb	0.017510852
140	0x3c26bbab	0.0101765795
141	0xbbdb67ab	-0.006695708
142	0x3b52c8cb	0.003216314
143	0xbcd6504b	-0.026161334
144	0x3afc4932	0.0019247888
145	0x3ce5971b	0.028026154
146	0xbcd650c0	-0.026161551
147	0x3cc70670	0.024295062
148	0x3bf239a6	0.007392126
149	0x3c0c1e4a	0.008552143
150	0x3c09fe44	0.008422438
151	0xbc175ceb	-0.009238462
152	0xbcf232e9	-0.029565291
153	0x3c9824ec	0.018572293
154	0x3bea88cf	0.007157422
155	0xbb3b0224	-0.0028535211
156	0x3c68bc18	0.014205001
157	0x3ab62cd2	0.0013898856
158	0xbc05320f	-0.008129611
159	0x3c9bc089	0.019012706
160	0x3b27c6b4	0.0025600614
161	0x3d0237fb	0.03179167
162	0xbbdd7ba0	-0.006759122
163	0x3ba95950	0.0051681176
164	0xbcebb043	-0.028770572
165	0x3ca1929c	0.01972323
166	0x3c6abaca	0.014326761
167	0x3b5420be	0.0032368149
168	0xbc5856db	-0.013204302
169	0xbd0995f2	-0.033590265
170	0x3d344252	0.04400856
171	0x3b44d070	0.0030031465
172	0x3c5a03d8	0.0133065805
173	0xbce22b2b	-0.027608475
174	0xbad1381e	-0.0015962159
175	0xbafa5ba9	-0.0019100803
176	0x3b9bb2cb	0.0047515384
177	0xbbcdc538	-0.006279614
178	0x3c9786d6	0.018496912
179	0xbbaf10d8	-0.005342584
180	0xbc55aee6	-0.013042187
181	0xbccbaa06	-0.024861347
182	0x3b027c4f	0.001991052
183	0x3d59a0d3	0.05313189
184	0x3d277d22	0.04089082
185	0xbcb9459d	-0.022616202
186	0x3c9ba81e	0.019001063
187	0x3b90832b	0.0044101677
188	0xbb9ad52d	-0.0047251196
189	0xbcde1bdc	-0.027112894
190	0x3d23875d	0.039924014
191	0xbc203fd7	-0.009780846
192	0xbaf6ab69	-0.0018819395
193	0x3bb42522	0.0054975906
194	0xbc7a5332	-0.015278624
195	0x3b7af0a5	0.0038290408
196	0x3c58de10	0.013236538
197	0x3cdac342	0.026704434
198	0xbbdf089d	-0.0068064467
199	0xbc0d2cbc	-0.008616623
200	0xbd5cf89c	-0.05394803
201	0xbceff586	-0.02929188
202	0x3c96c137	0.018402679
203	0xbb04f40b	-0.0020287063
204	0xbc300126	-0.010742461
205	0x3cf97581	0.030451538
206	0xbcdc93ee	-0.026926007
207	0xbbdb88d0	-0.006699659
208	0xbaa20da0	-0.001236368
209	0x3cb630d2	0.022240076
210	0xbcc3ef1b	-0.023917725
211	0x3c2f071b	0.010682846
212	0xbbfca177	-0.007709678
213	0x3cf3f854	0.029781498
214	0xbc359a33	-0.011084127
215	0xbce9ca7d	-0.028538937
216	0xbc20f209	-0.009823331
217	0xbc216683	-0.009851101
218	0xbba2fab6	-0.0049737347
219	0xbc7d7ae6	-0.015471196
220	0x3c510d8a	0.012759576
221	0x3c0dcbf7	0.008654586
222	0xbc35a5f7	-0.011086932
223	0xbc72e726	-0.014825618
224	0xbd0f7695	-0.035025198
225	0x3c1e5aed	0.009665233
226	0x3b26a1a5	0.0025425937
227	0xbc55fa32	-0.0130601395
228	0xbc03a1a3	-0.008034143
229	0xbc27049d	-0.010193971
230	0x3c3307e1	0.010927171
231	0x3d69f662	0.057119735
232	0x39becd4b	0.0003639258
233	0xbd05de27	-0.032682564
234	0xbb688997	-0.00354824
235	0xbc465113	-0.012104291
236	0x3c25052f	0.010072037
237	0xbcb1a0c7	-0.02168311
238	0x3a2ce6c9	0.0006595669
239	0xbcef3eaa	-0.029204685
240	0x3cd88158	0.026428863
241	0x3cb21105	0.021736631
242	0xbcab0357	-0.020875616
243	0x3c18f1fe	0.009335039
244	0xbba731aa	-0.005102356
245	0x3b906174	0.0044061486
246	0xbcff177d	-0.03113913
247	0x3cb6ae3c	0.022299878
248	0x3c45b0f8	0.012066118
249	0xbbd8e689	-0.006619279
250	0x3b1131c8	0.0022154916
251	0x3c8c5eed	0.017135108
252	0xbc0c340d	-0.008557332
253	0x3d211688	0.039328128
254	0x3cdd7f58	0.027038261
255	0x3a8057e2	0.0009791816

bias f4 [64]
0	0x3d1d9ac9	0.038477693
1	0x3cdb0ed6	0.026740473
2	0xbc24313c	-0.010021504
3	0x3cc32bb6	0.023824554
4	0xbcd7e3e0	-0.026353776
5	0xbd093fd6	-0.033508144
6	0xbc77dd10	-0.015128389
7	0xbc2bd1fc	-0.010487076
8	0xbd1a7fbe	-0.03771948
9	0xbc9e8d0b	-0.019354364
10	0xbc4cc3bc	-0.012497839
11	0x3ad5fb60	0.0016325526
12	0x3cdb8862	0.02679843
13	0xbd1e3903	-0.03862859
14	0x3ce328ee	0.027729478
15	0x3cb6a11e	0.022293624
16	0x3c6a6f44	0.014308754
17	0xbcbd10cb	-0.023079297
18	0xbd24a736	-0.040198527
19	0x3c8132d8	0.015771315
20	0xbd0d541a	-0.034504034
21	0xbbddab28	-0.006764788
22	0xbcca68a0	-0.024708092
23	0xbd0b6bb7	-0.03403827
24	0x3c8cd966	0.017193507
25	0x3c96b5ea	0.01839729
26	0xbd15ccc6	-0.03657224
27	0xbcc7f4d8	-0.024408743
28	0xbbf4ba08	-0.0074684657
29	0xbd0446fb	-0.032294255
30	0x3c3d72f0	0.011563048
31	0x3bd910e0	0.006624326
32	0xbb02df30	-0.0019969456
33	0xbd1c1954	-0.038110092
34	0x3c21fa4c	0.009886336
35	0xbd0c9eb8	-0.034331053
36	0x3cf086ba	0.029361118
37	0xbd17474e	-0.036933236
38	0x3cf76a26	0.030201983
39	0xbcffab50	-0.031209618
40	0xbc6bc4a6	-0.014390146
41	0x3cd043ee	0.025423016
42	0x3ceb2ac6	0.02870692
43	0x3c869bee	0.016431775
44	0x3c74f7ac	0.014951628
45	0x3d102287	0.035189178
46	0xbd08fb4b	-0.033442777
47	0xbcfc4ac8	-0.030797377
48	0x3d0d749b	0.03453503
49	0xbce8c368	-0.02841349
50	0x3cc1df86	0.023666155
51	0xbd11c45c	-0.035587654
52	0x3c903a32	0.017605875
53	0xbcca6023	-0.024704045
54	0xbd2416db	-0.04006086
55	0x3cee784a	0.029110093
56	0xbd0ae62e	-0.033910923
57	0x3cfad736	0.030620199
58	0x3ac3a1e0	0.0014925562
59	0x3d0b1125	0.033951897
60	0x3ce1ef72	0.027579997
61	0xbcf11768	-0.029430106
62	0x3d029481	0.031879906
63	0xbc25f874	-0.010130037

weight f4 [64]
0	0x3f82ff9b	1.0234255
1	0x3f7b73d2	0.982236
2	0x3f7cfd8e	0.98824394
3	0x3f80a55a	1.0050461
4	0x3f81f77d	1.0153652
5	0x3f84e453	1.0382179
6	0x3f7e9a54	0.99454236
7	0x3f833967	1.0251893
8	0x3f7c70c5	0.9860957
9	0x3f80dd4b	1.0067533
10	0x3f7f221d	0.9966143
11	0x3f786fa6	0.9704536
12	0x3f83bb76	1.0291584
13	0x3f7c7ad5	0.98624927
14	0x3f7a2f02	0.9772798
15	0x3f81d580	1.014328
16	0x3f873ff9	1.0566398
17	0x3f7db25d	0.99100286
18	0x3f7ee9a6	0.9957527
19	0x3f807f11	1.0038778
20	0x3f7bad67	0.98311466
21	0x3f809e9a	1.0048401
22	0x3f81b19f	1.0132331
23	0x3f7b73e5	0.98223716
24	0x3f83aeef	1.028776
25	0x3f7c1d1c	0.9848192
26	0x3f7affed	0.9804676
27	0x3f77742d	0.96661645
28	0x3f76a569	0.96346146
29	0x3f73ba45	0.952061
30	0x3f829a7b	1.0203394
31	0x3f753d52	0.9579669
32	0x3f805524	1.0025983
33	0x3f80d3d4	1.0064645
34	0x3f7c7609	0.9861761
35	0x3f7a5250	0.9778185
36	0x3f7a77a6	0.9783882
37	0x3f8114a9	1.008443
38	0x3f7d908c	0.99048686
39	0x3f811c93	1.0086845
40	0x3f83f128	1.030797
41	0x3f826b90	1.0189075
42	0x3f81df70	1.0146313
43	0x3f7bf792	0.9842464
44	0x3f823854	1.017344
45	0x3f80779d	1.0036503
46	0x3f80956a	1.0045598
47	0x3f7e71a6	0.99392164
48	0x3f7d6912	0.9898845
49	0x3f7cc813	0.9874279
50	0x3f7b4b02	0.9816133
51	0x3f81d390	1.0142689
52	0x3f813a4f	1.0095919
53	0x3f820d65	1.0160338
54	0x3f743fc7	0.95409817
55	0x3f7c89fd	0.98648053
56	0x3f821ab1	1.0164396
57	0x3f7ffca3	0.9999487
58	0x3f83c27b	1.0293726
59	0x3f7f84aa	0.99811804
60	0x3f850987	1.0393533
61	0x3f7cde65	0.9877685
62	0x3f832993	1.0247062
63	0x3f854147	1.0410546

bias f4 [64]
0	0x00000000	0.0
1	0x00000000	0.0
2	0x00000000	0.0
3	0x00000000	0.0
4	0x00000000	0.0
5	0x00000000	0.0
6	0x00000000	0.0
7	0x00000000	0.0
8	0x00000000	0.0
9	0x00000000	0.0
10	0x00000000	0.0
11	0x00000000	0.0
12	0x00000000	0.0
13	0x00000000	0.0
14	0x00000000	0.0
15	0x00000000	0.0
16	0x00000000	0.0
17	0x00000000	0.0
18	0x00000000	0.0
19	0x00000000	0.0
20	0x00000000	0.0
21	0x00000000	0.0
22	0x00000000	0.0
23	0x00000000	0.0
24	0x00000000	0.0
25	0x00000000	0.0
26	0x00000000	0.0
27	0x00000000	0.0
28	0x00000000	0.0
29	0x00000000	0.0
30	0x00000000	0.0
31	0x00000000	0.0
32	0x00000000	0.0
33	0x00000000	0.0
34	0x00000000	0.0
35	0x00000000	0.0
36	0x00000000	0.0
37	0x00000000	0.0
38	0x00000000	0.0
39	0x00000000	0.0
40	0x00000000	0.0
41	0x00000000	0.0
42	0x00000000	0.0
43	0x00000000	0.0
44	0x00000000	0.0
45	0x00000000	0.0
46	0x00000000	0.0
47	0x00000000	0.0
48	0x00000000	0.0
49	0x00000000	0.0
50	0x00000000	0.0
51	0x00000000	0.0
52	0x00000000	0.0
53	0x00000000	0.0
54	0x00000000	0.0
55	0x00000000	0.0
56	0x00000000	0.0
57	0x00000000	0.0
58	0x00000000	0.0
59	0x00000000	0.0
60	0x00000000	0.0
61	0x00000000	0.0
62	0x00000000	0.0
63	0x00000000	0.0

running_mean f4 [64]
0	0xbd330e73	-0.04371495
1	0x3d5af606	0.053457282
2	0xbcc5a05e	-0.02412432
3	0x3bb97539	0.005659726
4	0xbdfe4e52	-0.12417282
5	0xbd350218	-0.04419145
6	0x3e33b761	0.17550422
7	0xbe756002	-0.23962405
8	0x3c2eb89b	0.010664131
9	0xbcc6e326	-0.024278235
10	0xbd9e3037	-0.0772404
11	0xbd12a251	-0.03579933
12	0xbd381980	-0.044946194
13	0x3d9e9906	0.07744031
14	0x3c6aa09e	0.014320521
15	0x3e118234	0.14209825
16	0x3e7608e7	0.24026833
17	0xbe32bae1	-0.17454101
18	0xbe05473c	-0.13015455
19	0xbde85d85	-0.113459624
20	0x3e437cfb	0.19090645
21	0xbe06db05	-0.13169487
22	0xbd85c497	-0.06531637
23	0xbe1fe7d3	-0.15615778
24	0x3d5eedca	0.054425992
25	0x3e15e4d7	0.14638077
26	0xbe84b496	-0.25919026
27	0x3dcdd9cf	0.10051309
28	0x3dbef9be	0.09324978
29	0xbdae3926	-0.08506994
30	0xbe0798c5	-0.1324187
31	0x3e8500cb	0.25977167
32	0x3c1621d8	0.009163342
33	0xbeb63d12	-0.35593468
34	0xbe4f3946	-0.20236692
35	0x3e0cb8f8	0.13742435
36	0x3e438bc0	0.19096279
37	0x3b49f7eb	0.0030817937
38	0xbe127486	-0.14302263
39	0xbd9d7cbe	-0.07689808
40	0x3e103f1e	0.14086577
41	0xbddb326a	-0.10702975
42	0x3c819ea5	0.015822718
43	0xbe288873	-0.16458301
44	0xbe1c5a1a	-0.15268746
45	0xbcf87471	-0.030328961
46	0x3e462802	0.193512
47	0xbce57955	-0.028011957
48	0xbdb3cef4	-0.087797076
49	0x3e897050	0.268435
50	0xbd034247	-0.03204563
51	0xbda5280f	-0.08064281
52	0x3dcf3814	0.10118118
53	0x3b3fea7a	0.0029284046
54	0x3daeb15e	0.08529924
55	0xbe5b1fec	-0.21398896
56	0x3e98976b	0.29803023
57	0x3d8dd093	0.06924548
58	0x3dcaa51d	0.09894774
59	0x3de9de1b	0.114193164
60	0xbe5052f7	-0.20344149
61	0x3dcfa471	0.101387866
62	0xbb57247a	-0.0032828138
63	0x3e1d83db	0.1538233

running_var f4 [64]
0	0x3e00eca5	0.12590273
1	0x3dec0871	0.115250476
2	0x3da6f5cc	0.08152351
3	0x3d9e05da	0.0771596
4	0x3e1120bb	0.14172642
5	0x3df23579	0.11826605
6	0x3de8b97e	0.11363505
7	0x3d99fc04	0.07518771
8	0x3e1ab3ba	0.15107623
9	0x3df62682	0.120190635
10	0x3d8ce4d4	0.06879583
11	0x3e146689	0.14492239
12	0x3e083139	0.13300027
13	0x3de0a633	0.109692
14	0x3dce19b6	0.10063498
15	0x3dd8feb7	0.10595458
16	0x3e12a09a	0.14319077
17	0x3d9ec76b	0.0775288
18	0x3df8ce1c	0.12148687
19	0x3e0828e0	0.13296843
20	0x3df42306	0.11920743
21	0x3e3f4cfd	0.18681712
22	0x3e108fd6	0.14117369
23	0x3dc38346	0.09546523
24	0x3e5f98b1	0.21835591
25	0x3e0341a0	0.12818003
26	0x3e28b1fa	0.16474143
27	0x3dff5e47	0.12469154
28	0x3de3f4e5	0.11130694
29	0x3e0b1d07	0.13585292
30	0x3da094d9	0.078408904
31	0x3d716156	0.058930717
32	0x3db938a0	0.090440035
33	0x3df77ae3	0.12083986
34	0x3d7a0d40	0.061047792
35	0x3dd8d7b6	0.105880186
36	0x3dd60750	0.104506135
37	0x3dbcd439	0.09220166
38	0x3d9b7595	0.07590786
39	0x3dad54bc	0.084634274
40	0x3db83273	0.089939974
41	0x3dcf51a8	0.101229966
42	0x3e062a4b	0.13102071
43	0x3e022c46	0.12712201
44	0x3e22e46d	0.1590745
45	0x3e0948f7	0.1340674
46	0x3db729e9	0.089435406
47	0x3dcf86c9	0.1013313
48	0x3dcc163a	0.09965177
49	0x3e7ca4e5	0.24672277
50	0x3dee57c9	0.116378374
51	0x3e22afcf	0.15887378
52	0x3d5d5686	0.054037593
53	0x3e0ad690	0.13558412
54	0x3df32aed	0.11873422
55	0x3dd9a339	0.106268354
56	0x3dbd82a6	0.09253435
57	0x3da0da67	0.07854157
58	0x3e25be28	0.1618582
59	0x3deaa035	0.11456338
60	0x3e040c36	0.12895283
61	0x3e1321c3	0.14368348
62	0x3e1d977d	0.1538982
63	0x3dd7d946	0.105394885

weight f4 [1, 64, 3, 3]
0	0xbacc3dee	-0.0015582421
1	0x3c87e9ee	0.016591039
2	0xbb9f543c	-0.0048623364
3	0x3c820d0b	0.01587536
4	0xbbca05b4	-0.0061652306
5	0x3c08cd1c	0.008349683
6	0xbcbfc69c	-0.023410134
7	0x3c689aa1	0.014197023
8	0xba0d558a	-0.00053914695
9	0xbae5a36a	-0.0017520015
10	0x3cc3e58e	0.023913171
11	0xbbfd9772	-0.007739001
12	0xbc2c6caa	-0.010523954
13	0xbc20dda7	-0.009818471
14	0xbcb4daf0	-0.022077054
15	0xbc84b397	-0.016198916
16	0x3a9c589d	0.0011928264
17	0x3cd2d332	0.025735471
18	0x3d0483f1	0.03235239
19	0x3cd67499	0.026178645
20	0xbbbd0f80	-0.00576967
21	0x3c02f955	0.007994016
22	0xbb2471fc	-0.0025092354
23	0xbcef8ea7	-0.029242827
24	0x3ce598c4	0.028026946
25	0xbca0b1f5	-0.019616107
26	0x3b883313	0.004156479
27	0xbd05d6d6	-0.032675587
28	0x3bc6adde	0.006063207
29	0x3b9fa0de	0.004871472
30	0x3d0126a4	0.03153099
31	0xbb59cd1b	-0.0033233825
32	0x3c044cc4	0.008074943
33	0xbd250b8e	-0.040294223
34	0x3c0bc560	0.008530945
35	0x3bd7f625	0.006590622
36	0x3ce838b9	0.02834736
37	0xbcd132fb	-0.025537005
38	0xbb8fa237	-0.004383351
39	0xbcc7c72d	-0.024386967
40	0xbc29d25c	-0.010365095
41	0x3d4ba752	0.049720116
42	0xbcac12ee	-0.02100512
43	0x3aa28ec0	0.0012402162
44	0xba298922	-0.0006467273
45	0xbc903932	-0.017605398
46	0x3d1375bf	0.036000963
47	0x3c35d88d	0.011098993
48	0x3c14053b	0.00903445
49	0xbd08e570	-0.033421934
50	0x3cc87bde	0.024473127
51	0x3a0c2a4f	0.00053468806
52	0xbb037a7e	-0.0020062025
53	0xbc4aec3e	-0.012385426
54	0x3bea7a00	0.007155657
55	0x3c41ff87	0.011840708
56	0xbbf7a180	-0.007557094
57	0xbccb0769	-0.024783807
58	0xbd00e467	-0.03146782
59	0x3c62d4ea	0.013844708
60	0xbcf66c22	-0.030080859
61	0x3cd0f68c	0.025508188
62	0xbc91455c	-0.017733268
63	0xbc002689	-0.0078216875
64	0xbcd6c054	-0.026214756
65	0x3cd2c5e2	0.025729124
66	0x3cc32104	0.023819454
67	0xba6be1be	-0.0008998177
68	0xbbbdf5ab	-0.005797108
69	0xbcea237c	-0.028581373
70	0xbb0066c7	-0.001959251
71	0x3d1dfe40	0.03857255
72	0xbbcaebde	-0.0061926683
73	0x3d67f246	0.056627534
74	0x3cabb0cd	0.020958329
75	0x381a5e9c	3.6804573e-05
76	0x3c02557c	0.007954951
77	0xbac89432	-0.0015302955
78	0xbc3dc694	-0.011582989
79	0xbcc936b9	-0.024562227
80	0xbb350679	-0.0027622266
81	0x3c32729b	0.010891582
82	0xbaf5ca0f	-0.0018752235
83	0xbc9500bb	-0.018188825
84	0x3d76fdf8	0.060300797
85	0xbbe9c425	-0.007133978
86	0x3c536324	0.012902055
87	0xbbb9ffe1	-0.005676255
88	0x3d511ceb	0.05105297
89	0x3c8e59d9	0.017376827
90	0xbab78b9c	-0.0014003399
91	0x3b7b7cc1	0.003837392
92	0x3d501d79	0.050809357
93	0xbce348de	-0.027744707
94	0x3b905c67	0.0044055465
95	0xbaaf560f	-0.0013377088
96	0xbc6ded09	-0.014521846
97	0xbc665b01	-0.014059783
98	0x393a61b9	0.00017774747
99	0xbd0180ef	-0.0316171
100	0x3d1b9dee	0.03799241
101	0xbc56eb64	-0.013117645
102	0x3c6348af	0.01387231
103	0x3c0a7d2c	0.008452695
104	0xbbc9b88b	-0.0061560324
105	0x3c5d3355	0.013501008
106	0x3c563381	0.013073803
107	0xbcea4ae3	-0.028600162
108	0x3c9dadc3	0.019247895
109	0x3b67ed8a	0.0035389387
110	0xbd2f0ac6	-0.042734884
111	0xbd1a4c42	-0.03767038
112	0x3be643c9	0.0070271236
113	0xbb9dedae	-0.0048195934
114	0xbb0a8f09	-0.0021142385
115	0xbc9197b4	-0.017772533
116	0xbbc88559	-0.006119412
117	0xbc0084da	-0.007844174
118	0x3c78db98	0.015189074
119	0xbc36294d	-0.011118245
120	0x3c568daa	0.013095299
121	0x3cfb6538	0.030687913
122	0x3cae9f38	0.021316156
123	0xbc27a2cd	-0.010231686
124	0x3d5bb652	0.05364067
125	0xbcb1f9b2	-0.02172551
126	0x3c8129d7	0.015767021
127	0x3cb62510	0.02223447
128	0xbd7fd53e	-0.062459223
129	0xbc8bdc3c	-0.01707279
130	0x3c63b1e5	0.013897394
131	0x3c2d4ac9	0.010576912
132	0xbce15920	-0.027508318
133	0xbc7818dc	-0.015142646
134	0xbd1ae546	-0.03781631
135	0xbc9de356	-0.019273441
136	0xbbfb6b19	-0.007672679
137	0x3c88b266	0.01668663
138	0x3ba49f80	0.0050238967
139	0x3c6caa72	0.014444934
140	0x3c01449c	0.007889893
141	0x3cee3c5e	0.02908152
142	0xbc5979f4	-0.013273705
143	0x3c866fdc	0.01641076
144	0xbbdb0345	-0.0066837394
145	0xbc80d045	-0.01572431
146	0xbb9aa0c9	-0.004718874
147	0x3b3bdfd5	0.002866735
148	0x3c19d502	0.009389164
149	0x3bdf9700	0.0068234205
150	0xbd2de85c	-0.042457923
151	0xbc8fca70	-0.017552584
152	0xbb785ed0	-0.003789831
153	0xbd13d8b8	-0.03609535
154	0x3ce62493	0.028093612
155	0xbcc36bd2	-0.023855124
156	0x3d1b9672	0.037985273
157	0xbbfd5e7e	-0.0077322116
158	0xbc977f44	-0.018493302
159	0xbbe19f01	-0.00688541
160	0x3ba28bbc	0.0049605053
161	0xbba7e0b4	-0.0051232222
162	0xbc40b78e	-0.011762513
163	0x3d27d8bc	0.04097818
164	0xbc0384c8	-0.008027263
165	0xbd105809	-0.035240207
166	0xbbe964bc	-0.007122604
167	0x3c5afd89	0.013366112
168	0x3c687e80	0.014190316
169	0xbc77614f	-0.015098884
170	0x3c5a19c0	0.013311803
171	0xbc624eaa	-0.0138127
172	0xbcef9290	-0.029244691
173	0xbbea88e0	-0.00715743
174	0x3bb641ae	0.005562029
175	0xbd407027	-0.046981957
176	0xbbb91ab2	-0.0056489343
177	0xbcbb506d	-0.022865498
178	0xbcb2f5ea	-0.021845777
179	0xbc4794ce	-0.012181474
180	0x3b55ca65	0.0032621857
181	0xbcd7d27b	-0.026345482
182	0x3beabaef	0.0071633975
183	0x3c000d39	0.0078156525
184	0x3d07f3e5	0.03319158
185	0x3c17c0d7	0.009262285
186	0xbc58df94	-0.013236899
187	0xbccc5109	-0.024940984
188	0xbc1b774e	-0.009488894
189	0xbc1593e1	-0.009129495
190	0x3baf7605	0.005354645
191	0xbc5603b5	-0.013062407
192	0x3c9c9ad1	0.019116791
193	0x3ba2ac8d	0.0049644173
194	0xbc8fd3e6	-0.017557096
195	0x3be6ddbb	0.0070454753
196	0x3c393e5d	0.0113063725
197	0xbba89bd8	-0.005145531
198	0xb9bd9d9e	-0.00036166323
199	0x3c4412b8	0.0119673535
200	0x3c7527ef	0.014963134
201	0x3bd0f61b	0.0063769943
202	0x3977b152	0.00023621813
203	0x3c235d2d	0.009970945
204	0xbc9bf890	-0.019039422
205	0x3c536eb5	0.012904813
206	0x3c835a5d	0.0160343
207	0xbbee1319	-0.00726546
208	0x3c7f7530	0.0155919045
209	0x3bcac242	0.006187708
210	0x3be22522	0.006901399
211	0x3bd0350c	0.00635398
212	0x3bf68859	0.007523578
213	0xbbb5a21b	-0.005543006
214	0xbc40476e	-0.01173578
215	0x3bd56144	0.006511839
216	0xbc7d0ab5	-0.015444447
217	0xbcad941d	-0.02118879
218	0x3b390479	0.0028231426
219	0xba65a31e	-0.0008759963
220	0x3c34514f	0.011005714
221	0xbcb71139	-0.02234708
222	0xbc70bcea	-0.014693478
223	0xba5d8a9b	-0.0008451135
224	0xbc912320	-0.017716944
225	0x3c2e5807	0.010641105
226	0xbc6913cc	-0.014225911
227	0x3c4af494	0.0123874135
228	0x3d3a1f19	0.045439813
229	0xbb86c950	-0.004113354
230	0x3d192ef3	0.03739829
231	0x3bd55e2c	0.0065114703
232	0x3b0bf461	0.0021355378
233	0x3c0dedd0	0.008662656
234	0x3ace9c93	0.0015763215
235	0x3c77fa1d	0.015135315
236	0x3cf08e60	0.029364765
237	0x3aaa8a4b	0.0013011185
238	0xbc367378	-0.011135928
239	0x3c519402	0.0127916355
240	0x3ca433af	0.020044176
241	0x3cbdac10	0.023153335
242	0x3c8084b6	0.015688282
243	0x3c6cb1a5	0.014446651
244	0x3c3c6e6b	0.011500935
245	0xbcde6ef0	-0.027152508
246	0x3b69c2ef	0.0035669168
247	0x3d15a12b	0.036530655
248	0xbab9573d	-0.0014140379
249	0xbd1306a6	-0.035895012
250	0xbcd9407e	-0.02652001
251	0xbc8e7dc9	-0.017393963
252	0xbc95e7a0	-0.018298924
253	0x3c7d455c	0.015458431
254	0xbd11c682	-0.035589702
255	0xbc4aa034	-0.012367297

weight f4 [64, 1, 3, 3]
0	0x3d1e0cb2	0.038586326
1	0x3bcdcf17	0.0062807905
2	0xbccd6d05	-0.025076399
3	0x3c6dded9	0.014518463
4	0x3cc82682	0.024432424
5	0xbc2ddc16	-0.010611555
6	0x3cdb8873	0.026798462
7	0x3b9a5000	0.004709244
8	0xbbaba0c7	-0.005237672
9	0xbc06b04c	-0.008220743
10	0xbbb5dbc1	-0.0055498783
11	0x3c9b96cb	0.018992802
12	0xba99c6d4	-0.0011732229
13	0x3c329fbc	0.010902341
14	0x3ccdd9de	0.025128301
15	0x3c070fdb	0.008243526
16	0x3b0adf7f	0.0021190343
17	0xbd3fd680	-0.046835423
18	0xbceeef09	-0.029166715
19	0xbc0b07eb	-0.0084857745
20	0xbbd280d0	-0.006424047
21	0xbb421def	-0.0029619893
22	0x3c441f17	0.011970303
23	0xbc44ce99	-0.012012147
24	0x3cfa0b59	0.03052299
25	0x3cb59d02	0.022169594
26	0xbc83f432	-0.016107652
27	0xb91b33a3	-0.00014801188
28	0x3c98198e	0.018566873
29	0x3d51d700	0.05123043
30	0x3c0381c2	0.008026542
31	0x3accbf01	0.0015620888
32	0xbc4ba3c2	-0.01242918
33	0xbca027fe	-0.01955032
34	0xbc50ec24	-0.012751613
35	0xbc62727e	-0.013821242
36	0xbc05d33b	-0.008168037
37	0xbcbbdf2e	-0.022933569
38	0xb9a54f3d	-0.0003153029
39	0x3a0e6678	0.0005432139
40	0xbabf64b7	-0.0014602159
41	0x3cf4b23b	0.029870143
42	0x3a0a9725	0.00052868045
43	0x3c433f60	0.011916965
44	0xbc4cc7ca	-0.012498805
45	0xbcd81352	-0.0263764
46	0xbc593299	-0.013256692
47	0xbc6af0d4	-0.014339644
48	0xbcce4d64	-0.025183387
49	0x3c99fe3f	0.018797992
50	0xbb94af07	-0.0045374664
51	0xbd3578f7	-0.044304814
52	0xbba7eae6	-0.0051244376
53	0xbc9c6866	-0.01909275
54	0xbd0e26d9	-0.034705017
55	0xba947e62	-0.0011329169
56	0xbc72dcc2	-0.014823141
57	0x3b1ece5b	0.0024231884
58	0xbb91b14d	-0.0044461847
59	0xbc168de2	-0.009189101
60	0x3cc89024	0.024482794
61	0xbd01b51f	-0.03166687
62	0xbbf28b45	-0.007401856
63	0x3cccba57	0.024991198
64	0xb98ce76b	-0.000268753
65	0x3c389f90	0.011268511
66	0x3c6f52a5	0.014607106
67	0x3ba0dca5	0.0049091154
68	0xbb5a4c22	-0.003330954
69	0xbbc08f6e	-0.005876473
70	0xba96e175	-0.0011511283
71	0x3c0022f4	0.0078208335
72	0x3c1819ce	0.009283496
73	0x3ba2db70	0.0049700066
74	0x3b906772	0.004406863
75	0x3d405f72	0.046966024
76	0xbcae2e77	-0.02126239
77	0x3ce0efd0	0.027458102
78	0xbb90fd69	-0.00442474
79	0x3c38ffce	0.011291457
80	0x3a8f3aab	0.0010927519
81	0x3ce3f9a0	0.027828991
82	0x3c8fc7a3	0.017551249
83	0xbb2b3689	-0.0026125035
84	0x3c7252d4	0.014790256
85	0x3cc15e89	0.023604648
86	0x3d2aef9b	0.04173241
87	0x3c1298ba	0.008947546
88	0xbbfcdf8e	-0.0077170795
89	0x3c869fa6	0.016433548
90	0x3d51128e	0.051043086
91	0x3d0d91cb	0.034562867
92	0x3cb154ca	0.021646876
93	0x3c128c91	0.008944646
94	0xbbefbf6f	-0.007316522
95	0x3d2db00f	0.04240423
96	0x3b8acbe9	0.0042357338
97	0x3c674125	0.014114653
98	0x3b04e467	0.002027774
99	0x3c7d232b	0.015450279
100	0xbc776f45	-0.015102212
101	0x3c8da037	0.01728831
102	0xbcbc7fe5	-0.023010204
103	0x3d09c370	0.03363365
104	0xbac6c7d3	-0.0015165753
105	0xbbb69f40	-0.0055731833
106	0x3cbb96b0	0.022899002
107	0xbbdd1032	-0.0067463154
108	0xbce65697	-0.028117461
109	0xbbb2c70e	-0.005455858
110	0xbc9e8663	-0.01935119
111	0xb9cc662a	-0.0003898603
112	0x3c1bae8b	0.0095020635
113	0x3ba12a94	0.004918406
114	0xbc5b7db7	-0.013396672
115	0xbc5e0961	-0.013552041
116	0x3cdaa474	0.026689745
117	0xbd1842ea	-0.03717319
118	0x3c79d8b9	0.015249425
119	0xbc86f73f	-0.016475318
120	0xbb51aa95	-0.0031992544
121	0x3d059821	0.032615785
122	0xbc5f8501	-0.01364255
123	0x3c6cbbe1	0.014449091
124	0x3c6180b9	0.0137636
125	0x3a91c640	0.0011121705
126	0xbbdb514c	-0.006693041
127	0xbd3bbba4	-0.045833245
128	0x3cc0e389	0.023545997
129	0xbc996c40	-0.018728375
130	0xbce6e3b7	-0.028184755
131	0x3b80496c	0.0039150026
132	0xbcdef240	-0.027215123
133	0x3d2f4c77	0.042797532
134	0xbcee07b7	-0.029056413
135	0x3c09fb94	0.008421797
136	0x3c45b9aa	0.012068192
137	0x3c1b04a5	0.009461557
138	0xbc1551ef	-0.009113773
139	0x3c941f4b	0.018081328
140	0x3acd1166	0.0015645444
141	0xbaa145a3	-0.0012304079
142	0x3c3ff9ef	0.011717304
143	0x3cc7893c	0.02435743
144	0xbc0ea1dd	-0.008705583
145	0x3ca314aa	0.019907314
146	0xbb1e5f06	-0.0024165525
147	0xb9a24b51	-0.00030955163
148	0xbd116feb	-0.035507124
149	0xbc897ebf	-0.01678407
150	0x3b55fb0b	0.0032650854
151	0xbb5a08cf	-0.003326941
152	0x3c08c910	0.008348718
153	0xbd74b183	-0.0597396
154	0xbcab0cce	-0.02088013
155	0xbc4e3937	-0.012586883
156	0x3b5488bb	0.003243013
157	0xbcbe3e37	-0.023223026
158	0xbc0539f7	-0.008131496
159	0xbbf5682a	-0.007489224
160	0x3cac5594	0.0210369
161	0x3c1d97fe	0.009618757
162	0xbd2152d0	-0.039385617
163	0xbab5d45b	-0.0013872491
164	0xbbe72e8f	-0.0070551108
165	0xba0be12b	-0.0005335982
166	0xbb9467c4	-0.0045289714
167	0xbc882e65	-0.016623685
168	0xbc82c4db	-0.015963009
169	0xbcdcdd32	-0.026960943
170	0x3be3ee94	0.006955931
171	0x3c033d2c	0.00801019
172	0x3c1927ff	0.009347915
173	0xbcbb0820	-0.022831023
174	0xbc5ac762	-0.013353201
175	0xbb3a1b6b	-0.002839769
176	0x3c7b4174	0.015335429
177	0x3cbc6137	0.022995574
178	0x3c2d543d	0.010579166
179	0xbcfbc8b8	-0.030735359
180	0xbd000788	-0.031257182
181	0x3d0212b4	0.031756118
182	0xbc2c41a7	-0.0105137
183	0x3bfd1c98	0.007724356
184	0xbbd04879	-0.0063562957
185	0xbc85c92a	-0.016331274
186	0xbd149b0c	-0.036280677
187	0xbd25a4f3	-0.04044051
188	0xbb3ffcb5	-0.0029294912
189	0x3c796b13	0.015223282
190	0x3c061d9b	0.008185769
191	0xbc15b93d	-0.0091384025
192	0xbc2b662e	-0.010461373
193	0x3d0599d5	0.03261741
194	0x3c8400d7	0.016113682
195	0xbcfda9dd	-0.030964786
196	0xbc8ff7de	-0.017574247
197	0x3cccc646	0.024996888
198	0xbd4cf065	-0.050033946
199	0xbc473619	-0.012158894
200	0x3b89336c	0.004187038
201	0xbc54ff87	-0.013000376
202	0x3c372f6e	0.011180742
203	0xbc8c5473	-0.017130112
204	0xbc0056b7	-0.007833174
205	0x3d0f463d	0.034979094
206	0x3d1a4844	0.037666574
207	0xbc054067	-0.0081330305
208	0x3b703baa	0.0036656656
209	0xbbd3f70b	-0.006468659
210	0x3c440f44	0.01196653
211	0xbd0bc4db	-0.034123283
212	0x3cc87a3e	0.024472352
213	0xbca0f35e	-0.019647297
214	0xbc2e7192	-0.010647194
215	0xbb1580cb	-0.0022812362
216	0x3cdcdd04	0.026960857
217	0x3cfe96ca	0.031077761
218	0x3c5ce8f4	0.013483275
219	0xbc246881	-0.010034681
220	0xbd068cd4	-0.032849148
221	0xbb02c132	-0.001995158
222	0xbcea05b0	-0.028567165
223	0xbc85c1b2	-0.016327713
224	0xbc465e64	-0.012107465
225	0x3cbf01d5	0.023316303
226	0xbcba993d	-0.022778148
227	0xbb2d5fe2	-0.0026454856
228	0x3ac2491e	0.0014822816
229	0x3b16fbde	0.0023038308
230	0xbb8d2e3d	-0.0043084905
231	0xbc3b5006	-0.011432653
232	0xbcbf2ceb	-0.023336848
233	0x3bdbf647	0.006712708
234	0xbc95c17d	-0.018280739
235	0xbd1188f7	-0.03553101
236	0xbd1e9f42	-0.0387261
237	0x3c87aba0	0.01656133
238	0xbc78d26b	-0.015186886
239	0xbc28d4b0	-0.010304615
240	0xbc25d4bd	-0.010121522
241	0x3b42ba85	0.0029713225
242	0x3cef12f5	0.029183844
243	0xbb220bb4	-0.0024726214
244	0x3c937aa9	0.018002825
245	0xbd3237bc	-0.043510184
246	0xbbb848d5	-0.0056239166
247	0x3cbb0369	0.022828775
248	0xbc8a2844	-0.016864903
249	0x3ba92973	0.005162412
250	0xbce23e78	-0.027617678
251	0xbaffba75	-0.0019510525
252	0xbce84d75	-0.028357247
253	0xbc015feb	-0.007896404
254	0x3c629d39	0.01383143
255	0x3bb651d4	0.005563954

bias f4 [64]
0	0x3c044ce0	0.008074969
1	0x3e00655a	0.12538663
2	0x3da27bf0	0.079337955
3	0x3e78c13a	0.2429246
4	0x3e2d8c92	0.16948155
5	0x3d7f0628	0.06226173
6	0x3e918b91	0.28426793
7	0x3e27a0c2	0.16369918
8	0xbe68d316	-0.22736773
9	0x3de2210c	0.110414594
10	0xbea6435f	-0.32473275
11	0x3ce8fbf0	0.028440446
12	0xbe83fdbc	-0.2577952
13	0xbcda4470	-0.026643962
14	0xbe8dd660	-0.27702618
15	0x3e69fa76	0.2284945
16	0x3e46dc9a	0.1942009
17	0xbe1dbf5e	-0.15405032
18	0x3e8a5345	0.27016655
19	0xbdb4f776	-0.08836262
20	0xbd9816b4	-0.07426205
21	0x3c809d10	0.015699893
22	0x3e7ce176	0.24695382
23	0xbdbc6690	-0.0919925
24	0x3e494082	0.19653514
25	0xbe7a1f6b	-0.24426048
26	0x3e1466b8	0.14492309
27	0x3cd7fe00	0.026366234
28	0x3e4a2f6a	0.1974465
29	0xbd61b448	-0.05510357
30	0xbc4a0820	-0.012331039
31	0xbe9320ff	-0.28736112
32	0x3ea86cc9	0.32895496
33	0x3daa8b5c	0.08327362
34	0x3db30b10	0.087423444
35	0x3e384e32	0.17998579
36	0x3e971923	0.29511365
37	0x3e66ab72	0.22526339
38	0xbe33d973	-0.17563419
39	0x3c6591a0	0.0140117705
40	0xbe032483	-0.12806897
41	0xbdf7d250	-0.12100661
42	0x3dd54e44	0.104153186
43	0xbe0c56f6	-0.13705048
44	0x3c8895d0	0.016672999
45	0x3d0ec740	0.03485799
46	0xbe1cc798	-0.15310514
47	0xbe4c0ee8	-0.19927561
48	0x3e964d55	0.29355875
49	0x3bd038c0	0.0063544214
50	0x3cd42230	0.025895208
51	0x3e64136e	0.22273037
52	0x3de613a4	0.11234215
53	0x3d9fe6c0	0.07807684
54	0x3d2e29e0	0.042520404
55	0x3c908f30	0.017646402
56	0x3e5856ca	0.21126857
57	0xbd150640	-0.036382914
58	0xbea65fbf	-0.32494923
59	0xbe8b01d7	-0.2714984
60	0x3ad4f300	0.0016246736
61	0x3e9aedc3	0.30259523
62	0x3e937f85	0.28808227
63	0x3d167688	0.036734134

weight f4 [64]
0	0x3f803b97	1.0018185
1	0x3f821af3	1.0164474
2	0x3f7e4424	0.99322724
3	0x3f7985fa	0.97470057
4	0x3f8042eb	1.0020422
5	0x3f7ef35f	0.99590105
6	0x3f7ac07c	0.9794996
7	0x3f83ed01	1.0306703
8	0x3f8048e5	1.0022246
9	0x3f7a8e5a	0.9787346
10	0x3f79022b	0.97268933
11	0x3f7ebc5d	0.9950617
12	0x3f848741	1.0353776
13	0x3f7e8109	0.9941564
14	0x3f8282af	1.0196131
15	0x3f80238e	1.001085
16	0x3f748064	0.9550841
17	0x3f7be031	0.98388964
18	0x3f81562f	1.0104426
19	0x3f7c6a85	0.98600036
20	0x3f7d32c0	0.98905563
21	0x3f7ae68b	0.9800803
22	0x3f7ee023	0.99560755
23	0x3f82d0f9	1.0220023
24	0x3f86109f	1.0473822
25	0x3f80b34a	1.0054715
26	0x3f82baea	1.0213292
27	0x3f7caffa	0.9870602
28	0x3f7d69be	0.98989475
29	0x3f7ee865	0.99573356
30	0x3f7da4ac	0.99079394
31	0x3f6f8913	0.93568534
32	0x3f7c33bc	0.9851644
33	0x3f824017	1.0175809
34	0x3f816278	1.0108175
35	0x3f82f77f	1.023178
36	0x3f7b4aa6	0.9816078
37	0x3f798ea6	0.9748329
38	0x3f831ecd	1.0243775
39	0x3f80e1db	1.0068926
40	0x3f82db79	1.0223228
41	0x3f823a6e	1.0174081
42	0x3f7fffda	0.99999774
43	0x3f8008d8	1.0002699
44	0x3f8021ff	1.0010375
45	0x3f748d39	0.9552799
46	0x3f705f13	0.9389507
47	0x3f7ffa8f	0.999917
48	0x3f806f81	1.0034028
49	0x3f829639	1.0202094
50	0x3f867e19	1.0507232
51	0x3f7bdea2	0.98386586
52	0x3f7fe12c	0.9995296
53	0x3f83d96d	1.0300728
54	0x3f7cb23e	0.98709476
55	0x3f7ef565	0.9959319
56	0x3f7fe66e	0.9996098
57	0x3f8211c9	1.0161678
58	0x3f809c7a	1.0047753
59	0x3f8334c3	1.0250477
60	0x3f82097a	1.0159142
61	0x3f807b74	1.0037675
62	0x3f807a29	1.003728
63	0x3f818f2d	1.0121819

bias f4 [64]
0	0x00000000	0.0
1	0x00000000	0.0
2	0x00000000	0.0
3	0x00000000	0.0
4	0x00000000	0.0
5	0x00000000	0.0
6	0x00000000	0.0
7	0x00000000	0.0
8	0x00000000	0.0
9	0x00000000	0.0
10	0x00000000	0.0
11	0x00000000	0.0
12	0x00000000	0.0
13	0x00000000	0.0
14	0x00000000	0.0
15	0x00000000	0.0
16	0x00000000	0.0
17	0x00000000	0.0
18	0x00000000	0.0
19	0x00000000	0.0
20	0x00000000	0.0
21	0x00000000	0.0
22	0x00000000	0.0
23	0x00000000	0.0
24	0x00000000	0.0
25	0x00000000	0.0
26	0x00000000	0.0
27	0x00000000	0.0
28	0x00000000	0.0
29	0x00000000	0.0
30	0x00000000	0.0
31	0x00000000	0.0
32	0x00000000	0.0
33	0x00000000	0.0
34	0x00000000	0.0
35	0x00000000	0.0
36	0x00000000	0.0
37	0x00000000	0.0
38	0x00000000	0.0
39	0x00000000	0.0
40	0x00000000	0.0
41	0x00000000	0.0
42	0x00000000	0.0
43	0x00000000	0.0
44	0x00000000	0.0
45	0x00000000	0.0
46	0x00000000	0.0
47	0x00000000	0.0
48	0x00000000	0.0
49	0x00000000	0.0
50	0x00000000	0.0
51	0x00000000	0.0
52	0x00000000	0.0
53	0x00000000	0.0
54	0x00000000	0.0
55	0x00000000	0.0
56	0x00000000	0.0
57	0x00000000	0.0
58	0x00000000	0.0
59	0x00000000	0.0
60	0x00000000	0.0
61	0x00000000	0.0
62	0x00000000	0.0
63	0x00000000	0.0

running_mean f4 [64]
0	0x3d88b914	0.06675926
1	0x3e034f1a	0.12823144
2	0x3d9187a3	0.07105949
3	0x3e84bb2f	0.2592406
4	0x3e2b8423	0.16749625
5	0xbd30051b	-0.04297362
6	0x3e6555a8	0.22395957
7	0x3e52693e	0.20547959
8	0xbe28629d	-0.16443868
9	0x3e6297fa	0.22128287
10	0xbe41dfce	-0.18933031
11	0x3d6d12f2	0.057879396
12	0xbe93cd8d	-0.2886776
13	0xbcaef9eb	-0.021359405
14	0xbeb058e5	-0.3444282
15	0x3e936901	0.2879105
16	0x3e2a2a51	0.16617705
17	0xbe6d0636	-0.231469
18	0x3e3f73ed	0.18696566
19	0xbdba9b25	-0.09111623
20	0xbe208d75	-0.15678962
21	0x3d1dfe6b	0.03857271
22	0x3e73129c	0.23737568
23	0xbdfef2d8	-0.124486625
24	0x3e30bb0f	0.17258857
25	0xbe89743a	-0.26846486
26	0x3da87c0b	0.08226784
27	0xbc709e5e	-0.014686195
28	0x3e33b841	0.17550756
29	0xbc8b9724	-0.017039843
30	0xbc675b96	-0.014120957
31	0xbe85da1e	-0.26142973
32	0x3ecb3da8	0.39695477
33	0x3d94b987	0.07261949
34	0x3e01318f	0.12616561
35	0x3e258aeb	0.16166274
36	0x3ea296dd	0.31755725
37	0x3e860b29	0.2618039
38	0xbd91cf33	-0.07119598
39	0x3d0900ae	0.033447914
40	0xbdd10ddc	-0.102077216
41	0xbdb0c663	-0.08631589
42	0x3e4a02bc	0.19727606
43	0xbe17633f	-0.14783953
44	0x3d265c37	0.040615287
45	0x3cb68d91	0.022284301
46	0xbe0e7f45	-0.13915737
47	0xbe49a11e	-0.19690368
48	0x3ea7ed1d	0.3279809
49	0x3d3f88f1	0.046761457
50	0x3dd10f76	0.10208027
51	0x3e6daf32	0.23211363
52	0x3de4dc9a	0.11174889
53	0x3db39753	0.08769097
54	0x3da8d471	0.08243645
55	0x3d524170	0.051331937
56	0x3e4ba1e4	0.19885975
57	0xbc84083d	-0.01611721
58	0xbe9979d1	-0.2997575
59	0xbe625088	-0.22101033
60	0x3d3dc697	0.04633197
61	0x3e508ff6	0.20367417
62	0x3ea97999	0.33100584
63	0x3c1ec607	0.009690768
